error_net5.pth (torch_old, 1190 bytes, 5 tensors)

0.weight f4 [4, 6]
-0.034067445 0.8960967 0.5107501 -0.027435109 0.017894667 1.458789 0.351688 5.2125435
-1.134267 0.1636486 -0.17485659 -2.4269571 0.30840388 0.28567278 0.35878766 -0.30812693
0.3309227 -4.922494 0.037430648 1.1567961 0.2995473 -0.2182395 0.123398855 5.275821
00000000: 4e8a 0bbd 9866 653f 85c0 023f 98bf e0bc
00000010: d697 923c 99b9 ba3f 7310 b43e 28cd a640
00000020: a92f 91bf 8093 273e 9b0d 33be 4453 1bc0
00000030: 1de7 9d3e b443 923e 04b3 b73e d0c2 9dbe
00000040: b36e a93e 1285 9dc0 e150 193d e511 943f
00000050: 445e 993e 2d7a 5fbe 8ab8 fc3d 87d3 a840

0.bias f4 [4]
0.2312185 -0.22336167 0.48708433 -0.44365576
00000000: 8bc4 6c3e ecb8 64be 1e63 f93e d926 e3be

2.weight f4 [2, 4]
0.5564275 0.21363504 0.13203338 -0.16232416 -0.23792757 0.20157297 0.7075018 -0.48723754
00000000: 0872 0e3f 25c3 5a3e c233 073e 4e38 26be
00000010: 49a3 73be 2569 4e3e d71e 353f 3377 f9be

2.bias f4 [2]
-0.39485857 0.21681817
00000000: e72a cabe 9505 5e3e

4.weight f4 [1, 2]
-0.7826307 -0.3807467
00000000: 7c5a 48bf 3bf1 c2be
