error_net6.pth (torch_old, 1746 bytes, 5 tensors)

0.weight f4 [9, 14]
00000000: c09b 8f3d b805 0540 adb1 96bf 9c92 8bbc
00000010: 3dc7 f23d 451d 6ac0 9870 bcc0 7514 62c0
00000020: e141 f83f 99e0 7740 ae35 4f3f fe48 c83d
00000030: c596 89be de96 62bd af08 763e e5d9 833e
00000040: 29a6 203e 6e69 463e 6a03 053e fcd9 3f3e
00000050: da4f 59bd 496a de3d a034 09bc fa17 bcba
00000060: f15e 5d3e 24a9 e43d 8445 193e 7dfa 55be
00000070: 1a36 38be c786 90bd ed47 a9bf aedc 86bc
00000080: 709f 81be bd4d 83c0 29ff a6c0 063b 83c0
00000090: 9d63 003f aa52 003f 27ac 2440 5158 2e3e
000000a0: 3139 f53d 6a34 423b 68b0 85be 2238 44bf
000000b0: 2ca1 4fbf 919b 1cbe a3ff a8bd e70f a1c0
000000c0: 3496 adc0 2555 5cc0 a16e 8c3f 7093 bc3f
000000d0: 9c20 1e40 aa89 153e d6cf 0e3e 0826 2a3d
000000e0: 5270 07bd f01c 283e f5f3 963d 3c1e 99be
000000f0: 98fd 4abd a237 1a3e b6ee 6dbd e7b5 c8bd
00000100: 96cc 473d 9522 a63d d5cf 8d3e 6126 f3bd
00000110: e188 7ebe b801 f9bd e326 5c3d 62e1 5dbe
00000120: 313c 87bd d1bf 9bbc 9297 06be 605e f03c
00000130: 1012 c83d 084e ef3d d9d9 843e 280e ccbc
00000140: 54de a63b 53be 8bbe 1f06 05be cf74 783e
00000150: e883 39be 39c5 3940 957f 353f 1f1c 75be
00000160: f419 a33e 35e8 b93e 4753 0f40 481b 8640
00000170: 5406 76be a82b 19c0 c979 afbf 9db5 5abd
00000180: daad 1c3e 4289 b33d 32b1 843e aa16 3dbf
00000190: 5e79 9dbf 283e 98be d600 88bd 9178 ff3f
000001a0: 41d9 2140 2651 a2c0 42d1 14bf da14 2cbf
000001b0: f5c0 7540 669d 443e b45d e23d ee36 3a3d
000001c0: b2d5 79be 85d7 ba3f 79b6 cabf 2c10 f13d
000001d0: b1df 57bd 151a 373f f633 963f c5bb b7c0
000001e0: e284 24be 2666 e0bf e4fa 2740 6cfa 6e3d
000001f0: 5303 87bc 09d2 61bd
0.07012129 2.078474 -1.1772972 -0.017037682 0.11854408 -3.6580365 -5.8887444 -3.5324986
1.9395105 3.8730834 0.80941284 0.09779547 -0.2687284 -0.05531966 0.2402675 0.25752178
0.15688385 0.19376156 0.12989584 0.18735498 -0.053054668 0.10860116 -0.008374363 -0.0014350407
0.21618249 0.111650735 0.14967924 -0.20896335 -0.17989388 -0.07056957 -1.3225075 -0.01646265
-0.25316954 -4.1032395 -5.2186475 -4.100955 0.50152 0.50126135 2.5730073 0.17025878
0.11973799 0.0029633292 -0.2611115 -0.7664815 -0.81105304 -0.15293719 -0.08251884 -5.033191
-5.4245853 -3.4426968 1.0971261 1.4732494 2.4707403 0.14603296 0.1394647 0.041540176
-0.0330661 0.16417289 0.0737075 -0.2990588 -0.049558252 0.15060285 -0.05808898 -0.0980032
0.048779093 0.08112065 0.27697626 -0.118725546 -0.24856903 -0.12158531 0.053748023 -0.21668008
-0.066032775 -0.019012364 -0.13143757 0.029341877 0.0976907 0.11684805 0.25947455 -0.024909094
0.0050924215 -0.27293643 -0.12990616 0.24263309 -0.18116724 2.9026625 0.708978 -0.23936509
0.31855738 0.36309972 2.2394578 4.19083 -0.24025851 -2.3932896 -1.3709041 -0.053395856
0.15300694 0.08766414 0.2591644 -0.7386271 -1.2302663 -0.2973492 -0.066407844 1.9958669
2.5288851 -5.072406 -0.581318 -0.67219317 3.8399022 0.19200668 0.11053029 0.04546254
-0.24397925 1.4597021 -1.5836936 0.11770663 -0.052703563 0.71524173 1.1734607 -5.741671
-0.16066316 -1.7531173 2.6246881 0.05834429 -0.016481077 -0.055131946

0.bias f4 [9]
00000000: f9e5 223c ae4f 2cbe c326 2e3c fe5d acbd
00000010: cbd5 2dbe 1f74 de3b 33a6 46be 4d28 983e
00000020: e1b1 7d3f
0.009942525 -0.1682727 0.010629359 -0.08416365 -0.16976087 0.006788745 -0.19399337 0.29718247
0.99099547

2.weight f4 [4, 9]
00000000: 2503 f3bd 156a 3b3e a2e5 43be 8305 a0be
00000010: eb88 6f3e 948c 84bc 8f9c 6a3e 3a35 6cbe
00000020: c49b d0be ad67 f63e 02b8 cebd 8a0b 15be
00000030: 3b5e ef3e 14af 2a3e cc53 b2bc 50ec 30be
00000040: 7fe2 133f 3c27 973e 204f fe3d ba5f 883d
00000050: ffe9 f1be 2f66 24bf ed16 133e e984 42bc
00000060: 3d31 fa3d 4699 fdbe a424 77be 9382 99be
00000070: 8f98 2ebd e8d9 0b3f 0338 0f3f a83e 28bd
00000080: 4c0f 013e b87d 023e 1557 603e 6316 1dbe
-0.11865834 0.18302186 -0.19130567 -0.31254205 0.23392074 -0.016180314 0.22911285 -0.2306718
-0.4074384 0.48125973 -0.100936905 -0.14555183 0.4675158 0.1666835 -0.021768473 -0.17277646
0.5776748 0.2952212 0.12417436 0.066588834 -0.47248837 -0.6421842 0.14364214 -0.011872509
0.12216423 -0.49531 -0.24135071 -0.29982433 -0.04262596 0.54629374 0.5594484 -0.04107538
0.12603492 0.1274327 0.21908219 -0.15340571

2.bias f4 [4]
00000000: 2cd8 52be 89fe 7a3e e047 d13d 9b35 8abd
-0.20590276 0.2451116 0.10218787 -0.06748506

4.weight f4 [1, 4]
00000000: 4bdc e4be 1667 a83f 470f ecbe f405 3c3f
-0.4469932 1.3156459 -0.46105406 0.73446584
