error_net5a.pth (torch_old, 1446 bytes, 6 tensors)

0.weight f4 [6, 6]
00000000: 6841 45bd b581 4ebe d815 b4be 020e c4be
00000010: 5d34 82be 0a4f e0c0 83fb 833e 6564 8cbe
00000020: 98e6 27bf 255b c93c e4e5 72be b807 9840
00000030: efde 853e ee75 9740 f65c 0a3d 206f 95be
00000040: 0da7 113e d7d2 92c0 279c 853f 0894 9abe
00000050: 7c79 5dbe dc86 d5bc 7439 89bd 1f83 383f
00000060: 2038 ad3e b84c 1a3e dc67 273e 8a71 b53e
00000070: f85c bd3d 9f14 0341 1bc2 fa3e 89ee 6dc0
00000080: 490f ba3d cc06 173e cbec c2bd 1ee9 b840
-0.04815808 -0.20166667 -0.35172915 -0.38291937 -0.25430575 -7.0096483 0.25777826 -0.27420345
-0.65586233 0.024579594 -0.23720509 4.750942 0.26146647 4.7331457 0.03378006 -0.29186344
0.14223881 -4.5882373 1.0438279 -0.30191064 -0.21628374 -0.026065283 -0.067004114 0.72075075
0.33831882 0.15068328 0.16348213 0.35438186 0.09246248 8.192534 0.48976216 -3.717684
0.09084947 0.14748687 -0.09517821 5.7784567

0.bias f4 [6]
00000000: 08a1 b1bf 44ed cfbf a058 85bf b104 f33f
00000010: a6b0 08bf 0c23 c63f
-1.3877268 -1.6244283 -1.0417671 1.8985807 -0.53394544 1.5479445

2.weight f4 [6, 6]
00000000: 3223 4b3d 3be8 e0bc e2d5 c0be 98a3 ccbe
00000010: cabc 273f b7e7 6c3e dd08 1ebd e8a9 503d
00000020: ddd9 1ebf f5ee 5bbe d4cf 49be ea7c e03e
00000030: 1a32 9dbd f68c 24bd c4e2 a53e 1857 aa3e
00000040: 926a c0be 986f 6d3e 19ba a7be 669c 993e
00000050: 2bee 103e 1fff f53c ff93 273f 5b85 cbbe
00000060: 617c 5b3e a134 d53e b4cf 05be 0aab 97be
00000070: 7b8c 5e3e ea4a 7abd 8d0d 223e cf76 753e
00000080: 3a47 4bbc c0b9 4bbd dfdb d93e 7c8f 25be
0.04959411 -0.027454486 -0.3766318 -0.39968562 0.65522444 0.23135267 -0.03858267 0.050943285
-0.62051183 -0.21477874 -0.19708186 0.43845302 -0.07675572 -0.040173493 0.3239957 0.33269572
-0.37581307 0.23187101 -0.3275917 0.30002135 0.14153354 0.030028878 0.654602 -0.3975018
0.21434166 0.41641715 -0.13067514 -0.2962268 0.21733277 -0.0611066 0.15825482 0.23971103
-0.012407118 -0.049737692 0.4255056 -0.16168016

2.bias f4 [6]
00000000: 9e15 883d f850 a9be 5325 973d 4c3f 823e
00000010: 2594 7cbe cf1f 413e
0.06644748 -0.33069587 0.07380166 0.25438917 -0.24665888 0.1885979

4.weight f4 [3, 6]
00000000: c1df a3be b38e 8bbe fdb5 bc3f e15a 2bbe
00000010: 5f1a 0fbf 4837 d7bf 6a30 493a 4561 d6bd
00000020: a2a4 a4bf 6f40 01bf 0471 02be 893a 96be
00000030: 18f6 14bd 2b7a b33f 05d3 83bf 3d2d 5f3c
00000040: 1ce1 573d a403 3abf
-0.32006648 -0.27257308 1.4743038 -0.16733886 -0.55899614 -1.6813745 0.0007674756 -0.104677714
-1.2862742 -0.5048894 -0.12738425 -0.29341534 -0.036367506 1.4021658 -1.0298773 0.0136216255
0.052704915 -0.72661805

4.bias f4 [3]
00000000: 7215 34bd 5bf3 4e3e 80a9 9ebe
-0.043965764 0.2021002 -0.30988693
