fric_net_cs2.pth (torch_old, 946 bytes, 3 tensors)

0.weight f4 [10, 2]
00000000: cf66 803e 5961 1ac3 45be 4ebe 3bee 2b43
00000010: d08b 85be 616c 8e43 df3d 25bf e999 6bc3
00000020: 4ef4 a43e 9d2a 4f43 0b58 b2be a8a0 8643
00000030: de89 803e 9a3a 2c43 5c46 903e 6b2b 09c3
00000040: 3309 4a3e 2815 2843 a879 f6be 2cbb 7743
0.25078437 -154.38026 -0.2018977 171.93059 -0.2608323 284.8467 -0.6454753 -235.60121
0.3221764 207.16646 -0.34832796 269.25513 0.25105184 172.22891 0.2817868 -137.1696
0.19730072 168.08264 -0.4813969 247.73114

0.bias f4 [10]
00000000: 3821 2f3f a23d 79c0 9549 dec0 9a44 99c0
00000010: 3726 1240 9fcb 5ac0 3767 dfbf f929 a2bf
00000020: 1275 8c3e 4c5c a840
0.6841006 -3.8943868 -6.946482 -4.789624 2.2835824 -3.418678 -1.7453374 -1.2669059
0.27433068 5.2612667

2.weight f4 [1, 10]
00000000: e3b0 d543 e0a8 afc3 57d2 b1c3 96e1 b243
00000010: b482 bcc3 7c96 b3c3 b6fb b6c3 acb3 b343
00000020: a266 ffc3 26b1 a4c3
427.38193 -351.31934 -355.64328 357.7624 -377.02112 -359.17566 -365.9665 359.4037
-510.80182 -329.38397
