fric_net_ar1R.pth (torch_old, 946 bytes, 3 tensors)

0.weight f4 [10, 2]
00000000: 72b1 b7c0 d8b5 1142 bca0 8740 e347 0d41
00000010: 920e 0f3f d467 9bc1 bf4b b93e cb9c 4042
00000020: 8b11 6241 590d 5ec2 e16f ed3f 1c0b 2842
00000030: b215 91c0 64df 8342 8ba5 af40 a780 3142
00000040: f9bb 4941 a3ca dec1 1409 8c3e c356 6442
-5.740411 36.42758 4.238371 8.83005 0.5588161 -19.425697 0.36190602 48.15312
14.129283 -55.513035 1.8549768 42.01085 -4.5338984 65.93631 5.488958 44.375637
12.608392 -27.848944 0.27350676 57.08473

0.bias f4 [10]
00000000: 3ed2 edbf 8419 09bf b71f bdbf 1395 033f
00000010: 044e 65c0 2f5a 96bf 3ec7 dcc0 e0c8 a540
00000020: 0eb1 25c1 096f 40c0
-1.8579786 -0.5355456 -1.4775304 0.51399344 -3.5828867 -1.1746272 -6.8993216 5.180771
-10.355726 -3.006777

2.weight f4 [1, 10]
00000000: 8932 c340 e2a3 8a40 fdad 52c1 389c 2141
00000010: 14ab 12c0 6256 2441 373e 9040 dcbc da40
00000020: 1f8f 8bc0 9ab7 a940
6.099919 4.332505 -13.167478 10.100639 -2.2916918 10.27109 4.5075946 6.835554
-4.361221 5.3036623
