fric_net_cs1R.pth (torch_old, 946 bytes, 3 tensors)

0.weight f4 [10, 2]
00000000: 7a42 b3be 41dc 2543 1741 efbe f38b bb42
00000010: bf70 4a3e 1c32 2f43 2476 57bf 4e94 17c3
00000020: 982d df3e ff39 0a43 971b 01bf ea84 14c3
00000030: e199 9d3f 3604 6ac3 3ceb 0e3d 7f38 18c3
00000040: 62d9 783c 3e0b 3fc3 7d65 8b3e 8734 2bc3
-0.35011655 165.86037 -0.46729347 93.77334 0.19769572 175.19574 -0.84164643 -151.57932
0.43589473 138.22655 -0.50432724 -148.5192 1.2312585 -234.01645 0.034892306 -152.22069
0.015188547 -191.04391 0.27225867 -171.20518

0.bias f4 [10]
00000000: 993f 83c0 c5ac 753f ca46 f83f f165 9c40
00000010: d2d2 f4be 217f 1640 fbbb c8c0 3972 96be
00000020: f7e5 79c0 3c9c de3f
-4.1015134 0.9596675 1.9396603 4.887444 -0.47817093 2.3515093 -6.272947 -0.2938402
-3.904661 1.7391429

2.weight f4 [1, 10]
00000000: ddb8 69c3 5be8 88c3 b9f6 79c3 daa0 6943
00000010: 54ee 82c3 f504 8243 c338 8143 5e95 8c43
00000020: c625 7b43 7e54 7b43
-233.72212 -273.81528 -249.96376 233.62833 -261.86194 260.03873 258.44345 281.16693
251.14755 251.33005
