fric_net_ar1F.pth (torch_old, 1106 bytes, 3 tensors)

0.weight f4 [20, 2]
000000 ec e0 1c 41 46 d3 01 42 ca 40 6e c0 f8 51 5a c2
       9.804913 32.45632 -3.7227044 -54.580048
000010 a3 23 0e c1 fc a9 21 42 15 a0 c7 41 dc e1 61 40
       -8.8837 40.416 24.953165 3.5294104
000020 5d 24 33 3f 83 ab 93 41 7b 9c 93 c0 fa c6 5f 42
       0.6997736 18.458746 -4.6128516 55.944313
000030 00 6f 78 bf 10 8e 5f c0 d6 ce 5e 41 7e d0 67 41
       -0.9704437 -3.4930458 13.925497 14.488401
000040 a4 f0 9b c0 df c8 ff 41 76 57 4a c1 b6 fc d4 bf
       -4.873125 31.973082 -12.646353 -1.6639621
000050 ce 69 3b 3e 94 40 53 40 1d 40 6e c0 ff 33 15 41
       0.1830208 3.3008165 -3.7226632 9.325194
000060 50 4b 99 bf 32 01 9d c2 b5 d4 62 41 82 81 77 c1
       -1.1976109 -78.502335 14.17693 -15.469118
000070 16 f9 84 41 c4 d5 cb c2 30 7f 0e c1 a8 97 8f 42
       16.621624 -101.91751 -8.906052 71.7962
000080 99 3b 09 42 ca f2 fe c1 6d a2 2a c1 9f fa 7c 42
       34.3082 -31.86855 -10.664655 63.244747
000090 12 96 13 c1 cf d9 e6 42 e6 0a 81 bf be b6 d8 c2
       -9.224138 115.42541 -1.0081451 -108.35692

0.bias f4 [20]
000000 ca 55 b2 40 7a 59 dd 40 b6 d7 05 c1 6a bb 4a 40
       5.5729723 6.9171724 -8.365164 3.1676888
000010 9c c8 08 40 e4 e2 a3 3e 58 6d 77 bf 6b ce d5 c0
       2.1372442 0.3200904 -0.9665122 -6.6814475
000020 7d 94 77 c0 44 ee bf bf d1 e4 94 c0 43 ad 37 c0
       -3.868438 -1.4994588 -4.6529317 -2.86995
000030 cd 8b 34 40 6c 57 21 c1 4e 06 b5 40 5f 60 53 41
       2.8210328 -10.083843 5.6570196 13.211028
000040 0b 4d c1 c1 09 4b 76 41 02 38 60 be 46 35 5b c0
       -24.162619 15.393319 -0.21896365 -3.4251266

2.weight f4 [1, 20]
000000 4b a4 8a 40 f5 90 06 41 b3 45 ef 40 df 61 10 c1
       4.3325553 8.41039 7.477258 -9.023894
000010 b1 fc 5f 41 fd 81 91 c0 19 83 c2 41 3f a6 30 40
       13.999192 -4.5471177 24.314013 2.7601469
000020 aa b7 db 40 5f 61 45 c1 da ee fe 3e 28 95 31 c1
       6.86617 -12.336272 0.49791604 -11.098915
000030 3e 31 de c0 3c e5 0e c1 c8 20 75 c0 53 f8 d8 c1
       -6.943511 -8.930965 -3.8301258 -27.121252
000040 f5 93 c9 40 ef 05 c3 41 35 1a ac 40 67 d9 cf c0
       6.299311 24.377897 5.378199 -6.4952884
