fric_net_cs2R.pth (torch_old, 946 bytes, 3 tensors)

0.weight f4 [10, 2]
0.37363985 -146.23586 1.7654188 -367.8072 -0.8026909 364.65024 -0.039533786 194.87286
-0.05797603 -147.22699 0.185784 129.71661 -0.19552647 127.809166 0.27658373 152.72224
-0.38601452 -146.74371 -0.36479622 -226.74207
00000000: b94d bf3e 613c 12c3 3ef9 e13f 52e7 b7c3
00000010: 277d 4dbf 3b53 b643 2eee 21bd 74df 4243
00000020: 4678 6dbd 1c3a 13c3 293e 3e3e 74b7 0143
00000030: 1738 48be 4b9e ff42 629c 8d3e e5b8 1843
00000040: b2a3 c5be 64be 12c3 92c6 babe f8bd 62c3

0.bias f4 [10]
-1.807135 -9.423868 7.6144953 -2.0273628 -1.9343047 0.27652633 -0.0042545535 -4.138895
1.4650377 4.8288703
00000000: 3350 e7bf 2ac8 16c1 f2a9 f340 50c0 01c0
00000010: 4c97 f7bf dc94 8d3e c869 8bbb d471 84c0
00000020: 5b86 bb3f 1b86 9a40

2.weight f4 [1, 10]
231.50536 150.38324 -166.00565 -234.06483 239.94981 -292.7166 -303.90482 -233.78864
233.99533 233.2538
00000000: 5f81 6743 1c62 1643 7201 26c3 9910 6ac3
00000010: 27f3 6f43 ba5b 92c3 d1f3 97c3 e4c9 69c3
00000020: cefe 6943 f940 6943
