fric_net_cs1.pth (torch_old, 946 bytes, 3 tensors)

0.weight f4 [10, 2]
0	0x3e665728	0.22494185
1	0xc371fa4e	-241.97775
2	0xba083d98	-0.00051971665
3	0xc362fbbb	-226.98332
4	0x3f86c0ce	1.0527589
5	0xc378f060	-248.93896
6	0x3dd2dd09	0.10296065
7	0xc3701265	-240.07185
8	0x3e20a1f9	0.15686788
9	0xc3312f37	-177.18443
10	0x3dbedceb	0.093194805
11	0xc37e8d6a	-254.5524
12	0xbc4076a4	-0.011747036
13	0x4372de3e	242.86813
14	0x3cbad595	0.022806922
15	0x43790fdb	249.06194
16	0xbe24792c	-0.16061848
17	0xc34ef33e	-206.95016
18	0xbec7a12f	-0.3899016
19	0xc360861a	-224.52383

0.bias f4 [10]
0	0x40a6f721	5.217667
1	0xbffa9630	-1.9577084
2	0x40f5158b	7.6588798
3	0x4061f2c6	3.5304427
4	0xc07063de	-3.7560954
5	0x4019b777	2.4018228
6	0xbf40d6c2	-0.75327694
7	0x3f0e0cf8	0.5548854
8	0xc035398c	-2.8316374
9	0xc0aa6c24	-5.3257008

2.weight f4 [1, 10]
0	0x43c68dcf	397.10788
1	0x43cce6f1	409.80423
2	0x43c9f431	403.90775
3	0x43cb44e8	406.53833
4	0x43c0e9ed	385.82755
5	0x43d00483	416.03525
6	0xc3d4ef19	-425.86795
7	0xc3d2c45a	-421.534
8	0x43c817b6	400.18524
9	0x43c1420b	386.51596
