hybrid_net_ar1.pth (torch_old, 2396 bytes, 7 tensors)

so.weight f4 [1, 10]
000000 95 34 84 3e 6a dd 08 be 00 5d d1 ba 28 03 2b 3d
       0.25821367 -0.13365713 -0.0015973151 0.041751057
000010 9c 38 17 3e b8 6e da 3d 59 60 95 3e 6e 28 19 3e
       0.14767689 0.10665649 0.2917507 0.14956829
000020 72 dd 1f 3e a9 bc 98 3e
       0.15611818 0.29831436

fi.weight f4 [20, 2]
000000 94 92 a2 3e 40 b5 40 c0 9c d9 ea c0 20 65 ac 40
       0.31752455 -3.0110626 -7.3390636 5.3873444
000010 29 fc b6 c0 6a ed 9f c0 57 68 99 be ae f7 9c c0
       -5.7182813 -4.997731 -0.29962417 -4.9052343
000020 1f d8 27 3c bb 0e aa c0 82 8c 0d be ba db aa c0
       0.010244398 -5.314298 -0.1382313 -5.339322
000030 b6 3f 06 40 c2 fd 8f 40 d3 41 fd 3e f4 21 a8 c0
       2.0976386 4.4997263 0.49464282 -5.2541447
000040 63 03 24 3c b0 f6 a9 c0 9d 1f 22 3f 80 e0 59 c0
       0.010010573 -5.311363 0.6332949 -3.4043274
000050 60 20 70 bf 18 05 8e c0 b5 e4 a9 bd e7 f1 c7 c0
       -0.937994 -4.438122 -0.082955755 -6.248279
000060 fb 10 00 3c 54 12 a8 40 37 71 2d bf 9f ac 53 40
       0.007816548 5.2522373 -0.6775088 3.307411
000070 c3 85 20 3e 9a df a6 40 1b af e0 bd c3 0e b8 c0
       0.15676026 5.214795 -0.10970899 -5.751802
000080 d2 d5 3a 40 43 0e 66 c0 44 4e be 3c ef f2 ae c0
       2.9193006 -3.5946205 0.02323068 -5.467155
000090 17 c5 8c 3d c1 9d bc c0 28 18 b7 3f 0c f3 5e c0
       0.068735294 -5.894257 1.4304247 -3.4835844

fi.bias f4 [20]
000000 c5 85 1d 40 15 27 4e bf 33 0c 93 bf d6 00 8b bf
       2.4612896 -0.80528384 -1.1488098 -1.085963
000010 7f c8 aa bd 49 4a e1 be bd 57 06 40 9f c2 eb 3e
       -0.08339023 -0.44001988 2.0991051 0.46046922
000020 eb ec ab bd 79 98 08 40 46 38 09 c0 8b aa 88 be
       -0.08394798 2.1343062 -2.1440597 -0.26692614
000030 15 ab 01 3e e7 e4 1a c0 d1 9b 03 3f 57 38 ac be
       0.12662919 -2.420221 0.5140963 -0.33636734
000040 0d 3f c7 3f a5 65 59 bd 88 0f 15 3d b1 51 f9 3f
       1.5566117 -0.05307545 0.036391765 1.9478055

fo.weight f4 [1, 20]
000000 b4 f1 7f c0 30 18 84 40 e2 ec 99 c0 f6 66 79 c0
       -3.9991274 4.1279526 -4.8101664 -3.8969092
000010 05 b9 6a c0 d5 f6 7a c0 e1 bd 86 40 23 40 5d c0
       -3.6675427 -3.9213154 4.2106786 -3.4570396
000020 f0 f7 6a c0 bd a8 71 c0 99 a8 82 c0 9f 6b 82 c0
       -3.671383 -3.775924 -4.083081 -4.0756373
000030 49 bf 78 40 a3 e2 5a 40 91 1d 78 40 e4 b9 81 c0
       3.8866751 3.4200828 3.8768046 -4.0539417
000040 74 59 62 c0 e3 18 63 c0 69 32 59 c0 d6 fc 6d c0
       -3.5367098 -3.548394 -3.3937018 -3.718557

ri.weight f4 [20, 2]
000000 98 55 0f bd 13 d4 a3 40 c4 4a b8 3b a4 85 c0 40
       -0.034993738 5.119638 0.005624147 6.0163136
000010 1e 90 61 bd 0f 85 cc c0 c5 1a 0d bd 14 82 ca c0
       -0.05506908 -6.3912425 -0.034449358 -6.3283787
000020 e7 9d 33 bc 2a d2 b4 40 87 60 26 be ae 2a 69 c0
       -0.01096294 5.650655 -0.1624776 -3.64323
000030 3a b8 22 3e 85 65 89 40 3e 65 98 bc 74 0e af 40
       0.1589059 4.2936425 -0.018602964 5.4705143
000040 67 92 e5 ba de 06 be c0 fc 19 34 bc 8b d1 b4 40
       -0.0017514945 -5.9383383 -0.010992523 5.650579
000050 29 15 4d bb bb ed be c0 aa 14 6d ba 4d 36 bc 40
       -0.003129313 -5.96652 -0.00090439117 5.8816285
000060 03 f0 0a bc ee 30 c2 c0 d4 85 38 bd 45 d2 98 40
       -0.008480075 -6.068473 -0.045049503 4.7756677
000070 bc 41 a2 3c 1e 29 ae c0 d3 a8 06 3d f7 21 a5 c0
       0.019806735 -5.442519 0.032875847 -5.160396
000080 15 7c b9 bc 5b 18 ac 40 cd 29 20 3b d6 7d be 40
       -0.022642175 5.377973 0.0024438978 5.952861
000090 15 dc 4d 3e 9a 84 c8 c0 ac a4 04 3f 66 3f 2a 40
       0.20103486 -6.2661867 0.5181377 2.6601195

ri.bias f4 [20]
000000 60 d4 e7 3d 9c d2 ae ba 6f 4b 1a 3d f2 8b 00 3d
       0.11319804 -0.0013337913 0.037669595 0.031383462
000010 ca e9 10 3d ef 13 0c bf db 2b ed 3d c8 df 69 3d
       0.03537921 -0.54717916 0.115806304 0.05709818
000020 81 da c1 bb f8 44 11 3d db 5b 54 bb 79 15 3a 3c
       -0.0059159403 0.035466164 -0.0032403383 0.011357659
000030 97 ff c9 3b 1a b0 16 3e 3a f6 78 bd 04 87 d7 bd
       0.006164502 0.14715615 -0.060781695 -0.10523799
000040 e3 d6 8e 3d bb 6a 95 3b 9d 3d 0b 3b 18 f1 2a c0
       0.0697458 0.0045598424 0.0021246441 -2.6709652

ro.weight f4 [1, 20]
000000 dd 08 69 40 33 3d 81 40 eb 12 8d c0 f5 ac 87 c0
       3.641166 4.0387206 -4.4085593 -4.239863
000010 6a be 87 40 aa 6c 39 c0 b2 4d 4b 40 9c d2 83 40
       4.241994 -2.8972573 3.1766171 4.119459
000020 46 22 87 c0 3c 61 79 40 62 c7 88 c0 8e e7 87 40
       -4.222934 3.8965597 -4.2743387 4.247016
000030 c7 07 87 c0 98 93 7b 40 ff 98 84 c0 ac 63 74 c0
       -4.2196994 3.9308834 -4.1436763 -3.8185835
000040 bc 02 7b 40 9e 5c 84 40 4a 3b 8d c0 88 95 2a 40
       3.922042 4.136306 -4.4134874 2.6653767
