hybrid_net_ar2.pth (torch_old, 1801 bytes, 6 tensors)

fi.weight f4 [10, 2]
0	0x3f915d0f	1.1356524
1	0xc083b30d	-4.115607
2	0x3f17ae7b	0.5925061
3	0xc0b5b0f4	-5.6778507
4	0x3f7d9f29	0.99070984
5	0xc08d0094	-4.4063206
6	0x3f85a280	1.0440216
7	0xc08a5fa7	-4.3241763
8	0xbfa3e351	-1.2803746
9	0x40593215	3.3936818
10	0xbf0c94e3	-0.54914683
11	0x40bbc609	5.867924
12	0xbf2f9214	-0.6858227
13	0x40ad35ba	5.4128084
14	0xbdf64f6c	-0.12026867
15	0xc0d1688e	-6.544013
16	0xbf314dff	-0.6925964
17	0x40abd681	5.3699346
18	0xbef25b80	-0.47335434
19	0x40c2d8b8	6.088955

fi.bias f4 [10]
0	0xbf3ce358	-0.737844
1	0xbdef31e0	-0.11679435
2	0xbf14b58b	-0.5808951
3	0xbf22b8ec	-0.6356342
4	0x3f66da26	0.9017662
5	0x3d92ae67	0.07162171
6	0x3e5c677f	0.21523856
7	0x3d84c4ca	0.06482847
8	0x3e638bfd	0.2222137
9	0x3b93ee7f	0.004514515

fo.weight f4 [1, 10]
0	0x409f1778	4.971615
1	0x40de03ff	6.937988
2	0x40b9d5a2	5.807328
3	0x407dd51d	3.9661324
4	0xc09c0245	-4.875277
5	0xc0d3f231	-6.6233144
6	0xc0ddfe9a	-6.9373293
7	0x40f15b2d	7.54238
8	0xc09222a6	-4.5667295
9	0xc0936f86	-4.6073637

ri.weight f4 [10, 2]
0	0x3fc29f0a	1.5204785
1	0xc146d372	-12.426622
2	0xbfb30c31	-1.3988096
3	0x4132b87b	11.170039
4	0xbfb78f62	-1.4340632
5	0x41374c98	11.4562
6	0xbfab733c	-1.3394542
7	0x41300a01	11.002442
8	0x3fb5a96d	1.419233
9	0xc13f03b7	-11.938407
10	0xbfc02a1b	-1.501285
11	0x41430bad	12.190351
12	0x3fb3e849	1.4055263
13	0xc13e5043	-11.894595
14	0xbfaf74bc	-1.37075
15	0x4130b086	11.043097
16	0xbfb87d5f	-1.441326
17	0x41325a7e	11.147093
18	0x3fc342a8	1.5254717
19	0xc1449411	-12.286149

ri.bias f4 [10]
0	0xbf18d998	-0.5970702
1	0x3f18639f	0.5952701
2	0x3f154c11	0.58319193
3	0x3f21595d	0.6302698
4	0xbf21eca6	-0.6325172
5	0x3f1b254c	0.60603786
6	0xbf248d3e	-0.6427802
7	0x3f1b8140	0.60744095
8	0x3f10e683	0.5660173
9	0xbf0ec437	-0.5576815

ro.weight f4 [1, 10]
0	0x4086bcf2	4.2105646
1	0xc091a494	-4.55134
2	0xc08c4aa6	-4.3841124
3	0xc08550c5	-4.1661096
4	0x40828998	4.079296
5	0xc0808062	-4.0156717
6	0x4070c56f	3.7620504
7	0xc08edf2b	-4.464742
8	0xc08b0fe9	-4.345692
9	0x40c6c14f	6.2110972
