steering_net3.pth (torch_old, 906 bytes, 3 tensors)

0.weight f4 [10, 1]
00000000: 4c24 c8bb 903d a1bc bcb5 c83c bc1f 5dbd
00000010: 0453 0dbc 0904 a93c 83ca 013c b034 7cbd
00000020: 01c8 9c3d f572 a73c
-0.0061078425 -0.019682676 0.02450072 -0.053985342 -0.0086257495 0.020631807 0.007921818 -0.061573684
0.07655335 0.020440558

0.bias f4 [10]
00000000: 10e2 023c c87f 12bd 2cd1 dbba 4cab e9bc
00000010: cfb5 063e d5b1 373c 7225 b9bd 4728 70bd
00000020: 7097 82bd ef8b f13c
0.007988468 -0.035766393 -0.0016770712 -0.028524064 0.13155292 0.011211832 -0.09040345 -0.05863216
-0.06376541 0.02948567

2.weight f4 [1, 10]
00000000: 51bf 92bc eaab ea3d e549 853c 6f4e 75bd
00000010: 96ef b6be a118 20bd 500a 533e 3331 d8bd
00000020: e813 cfbd 3c70 fcbd
-0.017913492 0.11458571 0.016270587 -0.059889253 -0.35729665 -0.039085988 0.20609403 -0.10556259
-0.10111219 -0.123260945
