steering_net2.pth (torch_old, 906 bytes, 3 tensors)

0.weight f4 [10, 1]
000000 cd 86 b5 bb 56 57 b5 bb 66 6b e1 3c bf 6f b5 bb
       -0.005539751 -0.005534093 0.027517032 -0.005537003
000010 fb bb b5 bb aa 98 b5 3b 97 04 d4 bc bc 80 b5 3b
       -0.0055460907 0.0055418806 -0.025881095 0.005539028
000020 05 3f b5 3b 52 ea b4 3b
       0.005531194 0.005521097

0.bias f4 [10]
000000 47 6f d9 3b 7a d9 d8 3b 97 37 c5 3d 35 ef d8 3b
       0.0066355797 0.006617722 0.096297435 0.0066203126
000010 5b 73 d7 3b 84 b1 d8 bb 77 44 33 3d 0e 6d d8 bb
       0.0065750307 -0.0066129584 0.043766465 -0.006604797
000020 95 ce d8 bb cb 8a d9 bb
       -0.0066164234 -0.00663886

2.weight f4 [1, 10]
000000 f0 c1 81 bd ee 3d 82 bd 1a f2 c4 bd 48 0e 82 bd
       -0.06335819 -0.063594684 -0.0961649 -0.0635038
000010 8f 2f 80 bd 98 73 81 3d ac 11 33 bd 52 e0 81 3d
       -0.06259071 0.06320876 -0.043718025 0.06341614
000020 18 54 82 3d 6c e0 82 3d
       0.06363696 0.06390461
