steering_net4.pth (torch_old, 986 bytes, 3 tensors)

0.weight f4 [10, 3]
000000 a2 f4 cd 3e 90 a8 26 3f f4 0d 8c 3d 9f 7c 91 3f
       0.40225703 0.65100956 0.06838599 1.1366156
000010 4a a8 f5 be 3f 87 ff be eb dc 24 bd bc 3c e8 bb
       -0.47979957 -0.49907872 -0.040249746 -0.007087318
000020 da 48 42 bf d7 35 b6 3d 86 fa 02 bd b1 de 25 3d
       -0.7589241 0.08896988 -0.0319772 0.04049558
000030 21 7b af be 23 ed 2f 3f 49 4d 74 3f b2 bf ce bd
       -0.34273627 0.68721217 0.9543043 -0.10095157
000040 d1 b9 8c bd 2b 14 89 bc 06 44 fb bd 1f 3d 08 be
       -0.06871379 -0.01673325 -0.12268834 -0.13304566
000050 33 8f ed be 12 b7 be 3e 48 f6 2b be 04 e6 85 bd
       -0.46398315 0.37249047 -0.16793168 -0.065380126
000060 4a 2a 14 be a0 a3 ab 3d e0 2a db bd 96 6b 54 3e
       -0.14469257 0.08380818 -0.10701537 0.20744166
000070 3c 02 2e bd d4 fa 50 be
       -0.0424826 -0.20408183

0.bias f4 [10]
000000 0d 9a 3d 3e 4f 3f cf 3d 37 8a 35 3e 83 a5 aa be
       0.18515797 0.10119497 0.17728506 -0.333294
000010 28 71 02 3f f6 14 11 3f 7a 22 cc 3e 99 5d 01 3e
       0.5095391 0.5667261 0.39870054 0.12633361
000020 97 a4 b8 3a 4e 63 a1 3e
       0.0014087138 0.31521076

2.weight f4 [1, 10]
000000 b0 b6 59 3e 3e b5 d0 bd dd 5c 2f bc a8 63 8d 3e
       0.21261096 -0.10190819 -0.010703293 0.27615094
000010 d2 d9 9a 3e 64 fb 9a be 13 3a 91 be 95 da e1 3d
       0.3024431 -0.3026992 -0.2836462 0.11028019
000020 0c 97 45 be 03 02 4c be
       -0.19295901 -0.19922642
