python_nn/error_net5.pth (torch_old, 7987 bytes, 3 tensors)

0.weight f4 [200, 7]
-0.20098409 0.8035145 0.28270698 0.39171436 0.11077538 0.26290292 -0.22122365 0.057402756
2.7086477 -0.65710354 0.30071107 -0.15689251 0.62901783 0.48737365 0.03453743 1.6466355
1.0971789 -0.25153688 0.12999281 0.16643685 0.48932087 0.11659638 1.2743623 -0.3873288
-0.19385923 0.009154238 -0.20158543 0.30841526 -0.3944859 0.6281505 0.08441061 -0.35013178
-0.10654465 0.20485981 0.5164133 0.057038404 6.25282 -2.6038458 0.30702636 -0.052444763
0.39006618 -0.72059894 0.3880307 1.2186013 -0.29903764 0.011993424 -0.12617284 -0.009716026
0.18277232 -0.20511986 -0.07981739 -0.54808086 0.12855732 -0.22235173 0.43208262 -0.37277994
-0.23495242 -0.47559917 0.2534705 0.312286 0.0028488364 -0.21353365 -0.4434853 -0.22638574
-0.93972075 -0.59071493 0.22366177 -0.23260611 -0.27217793 -0.17377119 -0.28097495 -2.154947
-0.02897436 -0.40252152 -0.028643712 -0.30243713 0.32058203 -0.059995398 -2.5615675 0.2645315
-0.042942233 -0.033870835 0.14641336 -0.3000118 0.3418157 1.8621191 -0.076372385 0.17848627
0.09981589 0.052728012 -0.19388609 -0.30841538 1.6545901 -0.0604905 -0.061298 -0.3930135
-0.32233354 -0.06787055 -0.00073132984 0.5231369 0.6211734 0.31171787 -0.34526408 0.18048584
-0.22437988 0.18961838 1.0339496 -2.1404204 -0.27562037 0.29810065 0.15740837 -0.31983608
-0.32758316 0.19975351 -0.15735294 -0.492932 -0.21551359 0.33061227 -0.26787183 -0.15230592
0.95181865 0.3200978 0.1982112 -0.0308739 -0.16798607 0.594782 -0.11967673 1.6882468
0.39532894 -0.12399177 -0.28006294 -0.24603696 -0.23705474 0.0071036126 -2.623509 0.05895337
-0.31437436 -0.25012526 -0.21825565 -0.5323915 -0.07833865 2.2572267 -0.22947429 0.29018608
-0.3087803 0.012260024 -0.1341635 0.015716273 -0.93820107 0.91510904 -0.26575336 -0.06901316
0.23070277 0.6552476 0.27406475 1.2336041 0.6136941 0.29131824 -0.13368027 -0.16553898
-0.6367389 -0.09947726 2.143023 0.020298278 -0.052601974 -0.095480904 0.023053836 0.85787
-0.024329612 1.6497158 0.26629147 -0.27001888 0.08570629 0.057236984 -0.19882281 -0.15456866
0.38881755 -0.49349573 -0.103303984 0.1939354 0.13371353 0.3198254 0.18860218 1.5443693
0.07387618 0.0719329 -0.3189415 -0.18281525 -0.3873599 -0.38042322 2.0067165 0.0033421186
-0.519212 -0.44479394 -0.21223247 0.1539612 -0.27519843 1.1056551 -0.3315886 0.20428286
0.13736999 -0.21509509 -0.54821825 -0.22372429 -0.28720424 -0.9708604 -0.2958048 -0.114831544
-0.35446963 -0.6039363 -0.04232218 0.6284133 0.6560003 0.13701798 0.3272522 0.4806656
0.7485147 0.3239707 -3.9523594 0.04527836 -0.020401724 -0.15248053 0.0852392 -0.3682701
0.30154577 -1.1058383 -0.03505038 0.48406416 0.5965277 0.2155246 -0.14511654 0.09648962
1.2310337 -0.17787787 -0.20572637 0.03389125 0.38984555 0.095067196 -0.30471256 0.99045473
-0.5984999 0.09190064 0.15481833 -0.4283708 -0.047257066 0.29927614 3.0259056 -1.0755742
0.053707335 -0.2971796 0.44531986 0.40889046 -0.06913519 -0.016085884 -0.022189211 0.023691105
00000000: c6ce 4dbe 20b3 4d3f f8be 903e c98e c83e
00000010: 34de e23d 369b 863e 7488 62be 271f 6b3d
00000020: 7c5a 2d40 f037 28bf cdf6 993e 6ea8 20be
00000030: 5007 213f 0a89 f93e 1f77 0d3d f4c4 d23f
00000040: 5c70 8c3f 71c9 80be d61c 053e 6c6e 2a3e
00000050: 4488 fa3e 15ca ee3d 4e1e a33f f64f c6be
00000060: 0983 46be a8fb 153c 696c 4ebe 9be8 9d3e
00000070: 0efa c9be 79ce 203f 78df ac3d 7944 b3be
00000080: 1534 dabd c5c6 513e a933 043f 1aa1 693d
00000090: 1a17 c840 69a5 26c0 8f32 9d3e 52d0 56bd
000000a0: c1b6 c73e 2c79 38bf f6ab c63e 21fb 9b3f
000000b0: 761b 99be 1180 443c 7433 01be f72f 1fbc
000000c0: ab28 3b3e f10a 52be 4d77 a3bd 074f 0cbf
000000d0: 88a4 033e 2cb0 63be ef39 dd3e 03dd bebe
000000e0: 5e97 70be bc81 f3be e3c6 813e f3e3 9f3e
000000f0: 8bb3 3a3b 91a8 5abe 8110 e3be aad1 67be
00000100: 8a91 70bf 1839 17bf 9707 653e 4c30 6ebe
00000110: e85a 8bbe 13f1 31be f3db 8fbe a7ea 09c0
00000120: a35b edbc 4d17 cebe 38a6 eabc 0ad9 9abe
00000130: 5423 a43e bcbd 75bd b9f0 23c0 ac70 873e
00000140: 32e4 2fbd 25bc 0abd 62ed 153e 269b 99be
00000150: 7802 af3e eb59 ee3f 2069 9cbd 1bc5 363e
00000160: 466c cc3d 54f9 573d 138a 46be 9fe8 9dbe
00000170: 9cc9 d33f e3c4 77bd 9d13 7bbd 1139 c9be
00000180: e708 a5be b7ff 8abd b7b6 3fba 4dec 053f
00000190: 3805 1f3f 7c99 9f3e 74c6 b0be 48d1 383e
000001a0: d7c3 65be 522b 423e 7658 843f a6fc 08c0
000001b0: 1d1e 8dbe a6a0 983e a92f 213e 8ec1 a3be
000001c0: fbb8 a7be 2f8c 4c3e 2121 21be 9561 fcbe
000001d0: 98af 5cbe 0346 a93e 7f26 89be 15f6 1bbe
000001e0: 63aa 733f dce3 a33e e0f7 4a3e 43eb fcbc
000001f0: 8a04 2cbe a243 183f 1319 f5bd 7918 d83f
00000200: 8e68 ca3e 66ef fdbd 6964 8fbe 1df1 7bbe
00000210: 7abe 72be 6cc5 e83b 92e7 27c0 1779 713d
00000220: adf5 a0be 6b10 80be 697e 5fbe cf4a 08bf
00000230: 0470 a0bd 6776 1040 4ffb 6abe 4593 943e
00000240: 7418 9ebe 45de 483c 2862 09be 6abf 803c
00000250: f22d 70bf 9644 6a3f d310 88be c656 8dbd
00000260: 593d 6c3e 4fbe 273f 3752 8c3e bde6 9d3f
00000270: 0e1b 1d3f aa27 953e 7be3 08be 0d83 29be
00000280: 5201 23bf bcba cbbd 4a27 0940 9348 a63c
00000290: 2b75 57bd 7e8b c3bd 66db bc3c 5e9d 5b3f
000002a0: e54e c7bc e329 d33f 5b57 883e ea3f 8abe
000002b0: c886 af3d 5471 6a3d 3598 4bbe 3f47 1ebe
000002c0: 1813 c73e 79ab fcbe 0a91 d3bd 0097 463e
000002d0: 33ec 083e 28c0 a33e ee20 413e e5ad c53f
000002e0: 654c 973d 8e51 933d 4d4c a3be ec33 3bbe
000002f0: 0954 c6be d5c6 c2be 0b6e 0040 7207 5b3b
00000300: 14eb 04bf 08bc e3be 7853 59be 01a8 1d3e
00000310: cfe6 8cbe 1b86 8d3f fbc5 a9be 872f 513e
00000320: b8aa 0c3e e341 5cbe 0858 0cbf fb17 65be
00000330: 6f0c 93be 4f8a 78bf ba73 97be cd2c ebbd
00000340: 0b7d b5be 929b 1abf 065a 2dbd b2df 203f
00000350: a3ef 273f 714e 0c3e 9a8d a73e cd19 f63e
00000360: a99e 3f3f 7ddf a53e 75f3 7cc0 cd75 393d
00000370: 8421 a7bc db23 1cbe e491 ae3d e68d bcbe
00000380: 3564 9a3e 1c8c 8dbf fd90 0fbd 42d7 f73e
00000390: 0ab6 183f 7bb2 5c3e 6e99 14be 5a9c c53d
000003a0: 8392 9d3f 9e25 36be efa9 52be 8dd1 0a3d
000003b0: d699 c73e 97b2 c23d 4903 9cbe 718e 7d3f
000003c0: 4a37 19bf 6736 bc3d b288 1e3e 6b53 dbbe
000003d0: a090 41bd b93a 993e 70a8 4140 6aac 89bf
000003e0: 39fc 5b3d ed27 98be f700 e43e 175a d13e
000003f0: c096 8dbd 8bc6 83bc 26c6 b5bc d913 c23c

0.bias f4 [200]
-0.072248444 0.28377852 0.22727732 0.570409 0.7686953 -0.16962732 0.6496707 0.14529353
0.59700125 -0.14611633 -0.24000907 0.09225314 -1.2932938 0.45966557 -0.11781734 -0.47976193
-1.6475716 0.8660129 -0.38110322 0.081107065 -0.34194976 0.6754626 -0.73304754 1.1826524
-1.1450714 0.87445664 0.19163962 -0.5016378 -0.8997341 -0.98494726 -0.66266847 -0.87704325
-0.4023874 0.031001793 0.41405037 0.56702816 -0.320723 0.36858737 0.74717915 -0.33953908
-0.28798628 0.14367597 -1.1456392 -0.55191845 0.45037606 0.74615526 0.18790002 -0.18508266
0.59702015 -0.5390981 0.64408934 0.5658277 0.384658 -0.13288437 0.85703063 -0.23226635
0.026979346 -0.3615721 -1.1998646 0.12664321 -0.5603253 -0.5681605 1.1404238 -0.16957399
-1.0328908 -0.3047077 -1.1660323 -0.14211474 -0.4492368 -1.1896406 0.34282488 -1.0119907
0.98292416 0.37777257 -0.25582913 0.48609555 0.08743388 0.6623348 0.49576226 0.7613492
0.5879293 0.033823825 0.1744298 0.7115506 0.18752366 -1.1335018 -0.46060565 0.4347576
-0.66849726 0.6113437 1.0589918 1.0908483 -0.30244875 0.011920008 -0.583861 0.7376398
0.39409146 -0.18130426 -0.42239285 -0.0056278994 -0.3236696 -0.59592795 -0.8216705 0.952125
0.102034695 0.5363343 0.3949366 1.6759464 -0.4220845 0.42262226 0.2753902 0.091793224
0.45363602 0.09045924 -0.97858256 -0.88815045 -2.261792 -0.74003047 0.45087743 0.60854846
0.61053777 0.6083102 -0.38955364 -0.1151405 -0.58160514 1.2262818 -0.11970064 -0.18388397
0.28931984 0.21727303 -0.10071101 0.46550697 0.7209126 -1.3710442 0.25641847 0.2187565
0.7960553 0.06616806 1.2488406 -0.26427466 -0.09126532 0.5074438 -0.37479296 -1.060291
-0.2412025 -0.18615744 0.34254402 -0.0059820917 -0.021056058 0.82746536 -0.12718831 0.43405658
-0.5023726 -0.0015076593 -0.15818743 -0.5975643 -0.9698375 1.1715213 -0.47590116 0.18711811
-0.89417464 0.094456285 0.2648426 -0.8659167 0.37153104 0.8611298 0.46171898 -1.7091638
0.35975334 0.1635588 -0.15429287 0.5226324 0.13598275 -0.2505305 -0.6498217 -0.889588
0.22233745 -0.4806452 -0.4624419 -0.3493999 0.2853337 0.046950914 0.42167783 0.8568173
-0.5043296 -0.5492433 -0.213019 -0.5054479 -0.9295226 0.2880919 -0.50146216 -0.00952426
-0.12511809 0.18788594 -0.3787906 -2.1892622 -0.2516435 0.07769551 1.8909228 -0.20270415
00000000: fef6 93bd 6b4b 913e 63bb 683e 5306 123f
00000010: 37c9 443f c9b2 2dbe d250 263f d4c7 143e
00000020: 13d5 183f 859f 15be f0c4 75be 37ef bc3d
00000030: a78a a5bf 4959 eb3e 384a f1bd 5ba3 f5be
00000040: a0e3 d2bf 05b3 5d3f f61f c3be 761b a63d
00000050: 0a14 afbe 1eeb 2c3f 01a9 3bbf 2761 973f
00000060: b391 92bf 64dc 5f3f 2d3d 443e 566b 00bf
00000070: f954 66bf 8125 7cbf a4a4 29bf e885 60bf
00000080: b905 cebe 79f7 fd3c 69fe d33e c228 113f
00000090: ce35 a4be 7cb7 bc3e 2247 3f3f 11d8 adbe
000000a0: f072 93be cb1f 133e 4ea4 92bf 874a 0dbf
000000b0: b197 e63e 0804 3f3f dd68 403e 4f86 3dbe
000000c0: 50d6 183f 5502 0abf 0ae3 243f 16da 103f
000000d0: e5f1 c43e d712 08be 5c66 5b3f 3bd7 6dbe
000000e0: ca03 dd3c fa1f b9be 2a95 99bf c2ae 013e
000000f0: 7b71 0fbf f772 11bf 68f9 913f cea4 2dbe
00000100: c435 84bf a602 9cbe 8c40 95bf 8786 11be
00000110: 5e02 e6be 2546 98bf be86 af3e e988 81bf
00000120: eba0 7b3f 686b c13e 09fc 82be 84e1 f83e
00000130: 8910 b33d c68e 293f 8dd4 fd3e c8e7 423f
00000140: 8982 163f da8a 0a3d ba9d 323e 2e28 363f
00000150: 3406 403e 9616 91bf 81d4 ebbe 8c98 de3e
00000160: a322 2bbf 0581 1c3f 0b8d 873f eba0 8b3f
00000170: 90da 9abe 234c 433c ea77 15bf f6d5 3c3f
00000180: 5bc6 c93e d3a7 39be e043 d8be 3e6a b8bb
00000190: 06b8 a5be bc8e 18bf ff58 52bf 77be 733f
000001a0: 91f7 d03d 344d 093f 2135 ca3e 6985 d63f
000001b0: 761b d8be f261 d83e f2ff 8c3e 16fe bb3d
000001c0: fb42 e83e b242 b93d 6384 7abf d45d 63bf
000001d0: 33c1 10c0 a372 3dbf 68d9 e63e d5c9 1b3f
000001e0: 344c 1c3f 38ba 1b3f 9373 c7be c8ce ebbd
000001f0: 13e4 14bf cdf6 9c3f 9c25 f5bd 144c 3cbe
00000200: bb21 943e d27c 5e3e 9341 cebd ee56 ee3e
00000210: ba8d 383f 607e afbf 4849 833e b401 603e
00000220: 48ca 4b3f 1f83 873d 02da 9f3f 024f 87be
00000230: 50e9 babd d6e7 013f dde4 bfbe 9eb7 87bf
00000240: cafd 76be 0ea0 3ebe ee61 af3e 6c05 c4bb
00000250: c17d acbc c5d4 533f a73d 02be aa3c de3e
00000260: 7e9b 00bf a79c c5ba e3fb 21be f9f9 18bf
00000270: 4547 78bf 69f4 953f 51a9 f3be e49b 3f3e
00000280: a1e8 64bf 4c72 c13d 7399 873e b8ac 5dbf
00000290: 5139 be3e 0173 5c3f 6e66 ec3e e1c5 dabf
000002a0: 9731 b83e f57b 273e f3fe 1dbe 3dcb 053f
000002b0: 103f 0b3e 8945 80be b75a 26bf 0abc 63bf
000002c0: 6eac 633e 2117 f6be 2fc5 ecbe 8be4 b2be
000002d0: 4217 923e 9a4f 403d 28e6 d73e 6158 5b3f
000002e0: bf1b 01bf 359b 0cbf a721 5abe 0965 01bf
000002f0: 31f5 6dbf c880 933e d35f 00bf a40b 1cbc
00000300: f51e 00be 2c65 403e d7f0 c1be df1c 0cc0
00000310: 6bd7 80be d31e 9f3d c209 f23f ad91 4fbe

2.weight f4 [1, 200]
0.038957812 -0.08106008 -0.078364536 -0.06448719 0.11203085 -0.040738065 -0.112292014 0.06640795
0.08837003 0.023322001 0.06576219 0.076510035 0.08586283 -0.05860674 -0.059195805 -0.057658553
-0.15936178 0.106965296 0.0641403 0.049285475 -0.22008702 0.063173704 -0.10722772 0.120516844
0.09669236 -0.080198385 -0.09085195 0.12461013 -0.03959144 0.0672442 0.064385496 -0.12622546
-0.056992956 -0.096650265 0.07665328 0.03634621 -0.045002185 -0.06114411 -0.13133521 0.06885169
0.04239505 0.07506673 -0.09150729 0.07306603 -0.07127278 -0.052206397 0.0773351 0.074028865
-0.08127214 0.063016415 -0.044094674 -0.0889226 -0.025620753 -0.052089952 0.11020961 -0.028676812
0.04038127 -0.08275016 0.09504061 0.10928898 0.01410107 0.116653524 -0.08599118 -0.0620818
-0.05662987 -0.06262154 0.065774135 -0.09179809 0.07547644 0.09417788 0.108097866 0.051460214
-0.031468708 0.07644805 0.12301711 0.100237824 0.07912719 0.047705933 -0.031371213 -0.04667087
-0.08530997 0.15869293 0.10087719 0.03312972 0.076020695 -0.116933845 -0.036588393 0.036942087
0.07118214 -0.042498134 0.15335786 0.08910003 -0.07731082 0.11065608 -0.086732484 -0.075977124
-0.032118384 0.112014696 0.07456557 -0.035609823 -0.086954534 0.065165974 -0.29379514 0.100317545
-0.217752 -0.024682518 0.100818194 -0.08919739 -0.08692755 -0.06865691 0.064077914 0.03059897
-0.0649755 0.32054216 -0.14883794 0.062182553 -0.103070974 0.093818076 0.03855245 -0.10332792
0.23893894 -0.07890951 -0.09174107 0.073633835 -0.13357031 0.16780825 0.04660062 -0.0046149585
0.103249356 0.10605351 -0.06353531 0.18015926 0.05020022 -0.19726251 0.118058816 -0.040687423
-0.026541924 -0.0345862 -0.058490347 0.06408416 0.075344294 0.35777906 0.051979665 -0.11813745
0.06993623 -0.074306756 -0.07116555 -0.12306196 0.1391803 -0.07018862 -0.017462509 -0.022590335
0.07687446 -0.07881833 0.060259186 0.12739612 -0.26256076 0.12993191 0.08917662 -0.034896694
0.0571422 0.026442667 -0.038207103 -0.055999782 -0.05379386 -0.43004298 -0.031239975 0.10367276
-0.06917536 0.17935261 -0.05210553 0.04660034 0.03332684 0.06257199 0.105536886 0.050461948
-0.11570396 -0.09736611 0.10324462 -0.081485406 -0.05289757 0.050710585 -0.19696006 0.092053406
-0.23385149 0.04510982 -0.083298884 -0.039958224 -0.07563187 0.057598732 -0.28724492 0.10073038
0.06935365 -0.110216364 -0.037761837 0.1589494 0.09685739 -0.081255145 -0.122132346 0.04106283
00000000: 3a92 1f3d d402 a6bd 967d a0bd dc11 84bd
00000010: 6e70 e53d f5dc 26bd 5bf9 e5bd e400 883d
00000020: 59fb b43d c80d bf3c 54ae 863d 4bb1 9c3d
00000030: dad8 af3d 9f0d 70bd 4d77 72bd 602b 6cbd
00000040: bc2f 23be 9f10 db3d fd5b 833d 91df 493d
00000050: 7e5e 61be 3761 813d 359a dbbd 89d1 f63d
00000060: a506 c63d 0d3f a4bd 9610 babd 9933 ff3d
00000070: a22a 22bd 54b7 893d 8bdc 833d 3f41 01be
00000080: 7271 69bd 93f0 c5bd 65fc 9c3d c3df 143d
00000090: 3654 38bd 3f72 7abd bd7c 06be 1d02 8d3d
000000a0: 6fa6 2d3d 96bc 993d 2d68 bbbd a5a3 953d
000000b0: 77f7 91bd 60d6 55bd dd61 9e3d 729c 973d
000000c0: 0272 a6bd c00e 813d 9e9c 34bd 0d1d b6bd
000000d0: 9de2 d1bc 465c 55bd 93b5 e13d a2eb eabc
000000e0: d566 253d ea78 a9bd a7a4 c23d e7d2 df3d
000000f0: 2d08 673c 0be8 ee3d 251c b0bd 7c49 7ebd
00000100: b9f4 67bd b93f 80bd 97b4 863d a300 bcbd
00000110: 6493 9a3d 55e0 c03d 6a62 dd3d f2c7 523d
00000120: 55e5 00bd cc90 9c3d 65f0 fb3d 7d49 cd3d
00000130: 700d a23d 4c67 433d 1a7f 00bd f429 3fbd
00000140: feb6 aebd 6680 223e b398 ce3d 07b3 073d
00000150: bdb0 9b3d 037b efbd b6dd 15bd 9650 173d
00000160: f1c7 913d 8612 2ebd d809 1d3e 147a b63d
00000170: 2355 9ebd a89f e23d cda0 b1bd e599 9bbd
00000180: 918e 03bd f667 e53d d5b5 983d 9bdb 11bd
00000190: 3815 b2bd bd75 853d 516c 96be 4973 cd3d
000001a0: 61fa 5ebe fe32 cabc c579 ce3d 1fad b6bd
000001b0: 1207 b2bd fe9b 8cbd 483b 833d b1aa fa3c
000001c0: e011 85bd 1a1e a43e f968 18be 22b3 7e3d
000001d0: e016 d3bd b123 c03d 2ce9 1d3d 979d d3bd
000001e0: 69ac 743e 4f9b a1bd bee2 bbbd 56cd 963d
000001f0: a8c6 08be edd5 2b3e 4be0 3e3d 1439 97bb
00000200: 6674 d33d 9532 d93d cd1e 82bd ab7b 383e
00000210: bf9e 4d3d 2fff 49be d2c8 f13d dba7 26bd
00000220: 736e d9bc 42aa 0dbd 9393 6fbd 8e3e 833d
00000230: 1c4e 9a3d d12e b73e a1e8 543d 0cf2 f1bd
00000240: ba3a 8f3d 242e 98bd 3ebf 91bd e907 fcbd
00000250: 4885 0e3e 0dbf 8fbd 890d 8fbc 5e0f b9bc
00000260: 5b70 9d3d 816b a1bd 56d2 763d 2174 023e
00000270: 5d6e 86be df0c 053e 3ba2 b63d d6ef 0ebd
00000280: f10d 6a3d 4b9e d83c 0d7f 1cbd 0760 65bd
00000290: f356 5cbd 982e dcbe faea ffbc 6252 d43d
000002a0: d0ab 8dbd 36a8 373e 9c6c 55bd 00e0 3e3d
000002b0: b981 083d be25 803d b923 d83d 30b1 4e3d
000002c0: 33f6 ecbd e267 c7bd ea71 d33d d2e1 a6bd
000002d0: 1fab 58bd e7b5 4f3d e6af 49be 7f86 bc3d
000002e0: c476 6fbe 13c5 383d 9b98 aabd 3cab 23bd
000002f0: e2e4 9abd a6ec 6b3d c411 93be bb4b ce3d
00000300: 4909 8e3d 1eb9 e1bd 28ac 1abd a2c3 223e
00000310: 2b5d c63d 1969 a6bd 8620 fabd 7f31 283d
