python_nn/error_net4.pth (torch_old, 1794 bytes, 3 tensors)

0.weight f4 [28, 7]
-0.080540486 -1.0174439 -0.88951135 0.31925493 -0.08976758 -0.02472608 -0.7823532 0.35219124
-3.0778604 0.82811147 0.049038976 -0.16560148 0.04696712 -0.029943384 0.31188846 2.2454376
-2.2961278 -0.18923914 0.27710786 0.01158083 -0.6498681 -0.33283362 1.2654052 -0.80640376
-0.1579852 -0.12002779 -0.27965012 -0.35977155 -0.15114008 -5.6235137 0.905827 -0.080468416
0.22651234 0.017253526 -0.90677214 -0.32651716 -1.6648374 0.7524724 -0.2857752 -0.27223268
-0.54252654 0.33741176 -0.25408366 0.8604781 -0.9762533 0.022731964 0.42772928 0.21579346
-0.25721115 0.34241605 -0.045199893 -0.26707327 0.31058306 0.35626248 -0.0765632 2.176472
0.1919306 -1.2297221 -1.6987033 -0.025919227 -0.013985984 0.006468244 0.2854618 0.28446662
0.35034126 -0.73290986 -0.28831562 -0.05595917 -0.25483415 -0.47004193 0.14145099 -4.559867
3.2797315 -0.4053161 0.26177564 -0.80186 -1.2475854 0.24856822 -0.6396076 0.30773923
-0.09257648 0.08615072 0.012422078 -0.15501213 0.4210323 2.2501657 0.12006929 -0.06565396
-0.38334122 -0.2630759 0.044752426 -0.57239085 -3.0614538 0.968396 -0.63128453 -0.17291951
0.33047476 1.1180724 0.20704538 -1.0577543 -0.051232185 -0.0062314565 -0.27738258 0.06521716
0.013432129 0.413624 -2.5533974 0.7172636 0.39032903 -0.1077282 0.21492839 0.7209007
0.2912469 -5.1263375 0.5815149 -0.08822258 -0.15702966 0.18477061 0.03150837 0.3472784
-2.308107 0.19125547 0.09240328 0.15341169 0.18057017 -0.10041528 -0.2080572 -5.6394486
0.38352466 -0.25567815 -0.26743165 -0.11775657 -0.55325854 -0.1285194 2.8684878 -0.8676397
0.034033295 -0.079736345 0.0037239485 0.16848986 0.17451957 2.7204642 -0.063166685 0.008282863
0.25889894 0.10046741 -0.80749154 -0.13238655 -5.5289874 -0.52491206 -0.13093162 0.15912855
0.018296627 -0.645154 -0.044160377 -1.8577775 2.3325214 -0.13186571 -0.06837875 0.13619253
-0.51757216 0.29923707 -2.2394328 1.3449322 -0.24675685 0.09684104 0.054622784 -0.65576535
0.034296855 -5.430219 -0.853201 0.08186412 0.038720544 0.26360554 1.3301045 0.21877973
0.35891494 -0.019167028 0.33244932 0.22712615 -0.04283045 -0.20910275 -0.32125923 2.8484018
-0.23820208 -0.2744757 0.03629874 0.04709255 0.49974918 0.024219204 -0.14951971 -0.3003312
0.20467521 0.15158303 0.015025377 0.14854343
00000000: 69f2 a4bd 9a3b 82bf 04b7 63bf 6275 a33e
00000010: 11d8 b7bd 598e cabc 4d48 48bf 6952 b43e
00000020: aafb 44c0 1dff 533f 18dd 483d 6f93 29be
00000030: 9860 403d d44b f5bc d8af 9f3e 40b5 0f40
00000040: c2f3 12c0 e8c7 41be 15e1 8d3e 86bd 3d3c
00000050: c15d 26bf 2b69 aabe ccf8 a13f 7a70 4ebf
00000060: dfc6 21be 21d1 f5bd 4d2e 8fbe fa33 b8be
00000070: 77c4 1abe d3f3 b3c0 47e4 673f a0cc a4bd
00000080: daf2 673e 4457 8d3c 3822 68bf 422d a7be
00000090: 6419 d5bf 08a2 403f 2151 92be 1562 8bbe
000000a0: 05e3 0abf 3cc1 ac3e 4117 82be 4b48 5c3f
000000b0: bceb 79bf 6238 ba3c 55ff da3e f6f8 5c3e
000000c0: 2eb1 83be 2851 af3e 8623 39bd d4bd 88be
000000d0: be04 9f3e 0968 b63e 2bcd 9cbd 514b 0b40
000000e0: 7589 443e 8967 9dbf 1c6f d9bf 8f54 d4bc
000000f0: 7825 65bc 90f3 d33b 0d28 923e 9ca5 913e
00000100: ee5f b33e fb9f 3bbf 1b9e 93be 7135 65bd
00000110: 9f79 82be 56a9 f0be 87d8 103e 6eea 91c0
00000120: 1fe7 5140 9885 cfbe 7507 863e b246 4dbf
00000130: e1b0 9fbf ab88 7e3e 53bd 23bf ff8f 9d3e
00000140: bd98 bdbd ca6f b03d f985 4b3c 80bb 1ebe
00000150: 8c91 d73e b702 1040 e3e6 f53d 9575 86bd
00000160: 4d45 c4be e2b1 86be 524e 373d 3588 12bf
00000170: dcee 43c0 cde8 773f dd9b 21bf d011 31be
00000180: fd33 a93e ff1c 8f3f b403 543e 7e64 87bf
00000190: d7d8 51bd 3f31 ccbb 1705 8ebe 9390 853d
000001a0: 6f12 5c3c 86c6 d33e dd6a 23c0 969e 373f
000001b0: 35d9 c73e 9aa0 dcbd 3016 5c3e f38c 383f
000001c0: 501e 953e f50a a4c0 29de 143f 0aae b4bd
000001d0: 62cc 20be 8234 3d3e ec0e 013d 79ce b13e
000001e0: 06b8 13c0 79d8 433e ee3d bd3d f417 1d3e
000001f0: 63e7 383e 87a6 cdbd f20c 55be 5d76 b4c0
00000200: 585d c43e 3fe8 82be cdec 88be 5b2a f1bd
00000210: 5aa2 0dbf 979a 03be 4e95 3740 a31d 5ebf
00000220: 7f66 0b3d cf4c a3bd 7d0d 743b 9b88 2c3e
00000230: 42b5 323e 161c 2e40 895d 81bd d8b4 073c
00000240: 678e 843e dcc1 cd3d c4b7 4ebf 5790 07be
00000250: 77ed b0c0 a360 06bf f012 06be 98f2 223e
00000260: cfe2 953c d028 25bf 83e1 34bd a7cb edbf
00000270: 0848 1540 ce07 07be 280a 8cbd 0e76 0b3e
00000280: 9c7f 04bf 9a35 993e de52 0fc0 bd26 ac3f
00000290: d4ad 7cbe 9854 c63d 24bc 5f3d 3de0 27bf
000002a0: dc7a 0c3d 5bc4 adc0 616b 5abf 60a8 a73d
000002b0: 6f99 1e3d 4ef7 863e dd40 aa3f cb07 603e
000002c0: b3c3 b73e 2c04 9dbc cc36 aa3e c293 683e
000002d0: fb6e 2fbd 081f 56be 177c a4be 374c 3640
000002e0: 3feb 73be 1488 8cbe fdad 143d 1ee4 403d
000002f0: 20df ff3e 5a67 c63c b21b 19be 03c5 99be
00000300: 6196 513e 9538 1b3e 002d 763c c51b 183e

0.bias f4 [28]
-2.4541368 -1.6921082 -1.4479055 0.81818163 -1.8105932 -0.61534363 -0.110923514 2.1625552
0.10059907 -0.658922 -0.8240557 -0.10918487 -0.7377721 1.2374277 -0.8085673 -0.28308153
-1.6720138 -0.7707302 0.44446543 0.75046855 -1.4008398 0.32455575 1.2352716 2.0287952
2.1943214 2.3136275 -0.42008585 -0.8871443
00000000: 9410 1dc0 0097 d8bf f854 b9bf 5a74 513f
00000010: 85c1 e7bf 2987 1dbf de2b e3bd 4e67 0a40
00000020: e306 ce3d 1daf 28bf 50f5 52bf 519c dfbd
00000030: a2de 3cbf 0864 9e3f 44fe 4ebf 10f0 90be
00000040: 8c04 d6bf 934e 45bf f990 e33e b51e 403f
00000050: b84e b3bf 2c2c a63e 611d 9e3f c8d7 0140
00000060: c36f 0c40 7912 1440 7e15 d7be e41b 63bf

2.weight f4 [1, 28]
-0.22051173 -0.42734832 -0.35590228 -0.1611392 0.32765052 0.08143142 -0.16393702 -0.3745771
0.61542773 0.101719044 0.021849569 -0.49696317 0.16094783 0.064021245 -0.23029277 0.17584242
-0.28865018 0.07366099 -0.2616752 -0.29986194 0.29070005 0.31440526 0.17773171 0.24593009
-0.122306265 -0.26539847 0.27193877 0.29075864
00000000: d4cd 61be 66cd dabe d338 b6be ad01 25be
00000010: cfc1 a73e 84c5 a63d 1bdf 27be 92c8 bfbe
00000020: ac8c 1d3f 1352 d03d defd b23c f571 febe
00000030: 82cf 243e 921d 833d ded1 6bbe 0910 343e
00000040: f5c9 93be 93db 963d 4bfa 85be 8187 99be
00000050: a3d6 943e baf9 a03e 4dff 353e 19d5 7b3e
00000060: b57b fabd 4fe2 87be 8f3b 8b3e 51de 943e
