python_nn/error_net.pth (torch_old, 1610 bytes, 4 tensors)

0.weight f4 [10, 10]
0	0x3c92f58e	0.017939355
1	0xbda23e02	-0.07921983
2	0x3cc9f9cb	0.024655243
3	0x3cd1cd4e	0.025610592
4	0x3e0fb016	0.14032015
5	0x3e6ab833	0.22921829
6	0xbd44bd02	-0.048031814
7	0x3e97682a	0.29571658
8	0x399e76ea	0.00030224706
9	0x3b165de1	0.002294414
10	0x379d60a2	1.8760857e-05
11	0xb970af45	-0.00022953477
12	0x3934f34b	0.00017256771
13	0xb9d47b7b	-0.0004052779
14	0x3a387f2e	0.0007037994
15	0x3a8b679d	0.0010635738
16	0x3bbf0e8a	0.0058305906
17	0x3b90d729	0.0044201803
18	0x365e3277	3.3109952e-06
19	0x377d8b66	1.5112431e-05
20	0x24086e21	2.9583582e-17
21	0xa687d0e7	-9.42413e-16
22	0x2422cde1	3.5302537e-17
23	0xa6f190a8	-1.6761943e-15
24	0x27392c1a	2.5697815e-15
25	0x2600ec0a	4.4728814e-16
26	0x26f2a214	1.6836055e-15
27	0x26c35553	1.355397e-15
28	0x21984663	1.0318552e-18
29	0x24817a9e	5.6152554e-17
30	0x3c7198b3	0.014745879
31	0x3e1023d7	0.14076172
32	0xbd728d39	-0.05921671
33	0x3ea26bf3	0.31722984
34	0xbd97a954	-0.07405344
35	0xbe21d7b2	-0.15804937
36	0xbe922ffe	-0.2855224
37	0xbe359be9	-0.17735256
38	0xb9fb01e4	-0.0004787586
39	0xbb4bdc51	-0.003110666
40	0xb9364095	-0.00017380931
41	0x18b2e133	4.6239315e-24
42	0x20436c01	1.6552878e-19
43	0xbd9f5720	-0.0778029
44	0x3cdf36ed	0.02724787
45	0x3a443f30	0.00074862223
46	0x398d06c7	0.00026898665
47	0xbbd7d2fd	-0.006586431
48	0x00000010	2.2e-44
49	0x00000026	5.3e-44
50	0x3b90d1ce	0.004419542
51	0xbccad906	-0.024761688
52	0x3cd41d39	0.02589284
53	0x3e0c2db0	0.13689303
54	0x3bea61d0	0.0071527734
55	0xbd904297	-0.07043951
56	0x3e42a384	0.19007689
57	0xbe166564	-0.14687115
58	0x38d1ff96	0.00010013503
59	0xb9e959b7	-0.00044508066
60	0xaecb7aa7	-9.253159e-11
61	0xb0521a1d	-7.6434664e-10
62	0x30528f51	7.660122e-10
63	0xb102a9d3	-1.9014024e-09
64	0x308d8e51	1.0299549e-09
65	0x310ab88a	2.0186541e-09
66	0x30da4310	1.5880648e-09
67	0x31d42243	6.173907e-09
68	0x2ce49d5b	6.4976197e-12
69	0x2d0c6906	7.9813985e-12
70	0x3b9f23e0	0.0048565716
71	0xbc8543b9	-0.016267644
72	0x3cc0d846	0.023540627
73	0x3e816caf	0.25278232
74	0xbccfbf82	-0.025359873
75	0x3d0bb5d0	0.034108937
76	0x3ef62cf3	0.4808117
77	0x3be62233	0.00702312
78	0x38ec4372	0.000112659196
79	0xb8bd8f96	-9.038967e-05
80	0xbc04e5fc	-0.008111473
81	0xbd4b22f7	-0.049593892
82	0xbd156b05	-0.036479015
83	0xbe59eec3	-0.21282487
84	0x3e74446c	0.23854226
85	0xbe5c5b49	-0.21519198
86	0x3ed2d0ed	0.41175023
87	0xbe67dfa9	-0.22643913
88	0xb984b4ba	-0.00025311654
89	0x3b917dbf	0.004440039
90	0x3c24a3c7	0.010048813
91	0x3d806b3c	0.06270453
92	0xbd17bf61	-0.037047748
93	0x3db130f1	0.08651913
94	0x3d874404	0.0660477
95	0xbe830943	-0.25593004
96	0xbe738e3d	-0.23784728
97	0xbed73b92	-0.42037636
98	0xb9b9c5da	-0.0003543336
99	0xba350873	-0.0006905861

0.bias f4 [10]
0	0x3cb05008	0.021522537
1	0x38056aa7	3.1809e-05
2	0x2522606b	1.4083928e-16
3	0xbc4fc03d	-0.0126801105
4	0xa62f6b83	-6.0861027e-16
5	0xbaac78ac	-0.0013158522
6	0x2ea01b30	7.280787e-11
7	0xb88716d7	-6.441556e-05
8	0x3c8e0917	0.017338319
9	0xbb4642b4	-0.003025216

2.weight f4 [8, 10]
0	0x3d620a09	0.05518535
1	0xb942d16f	-0.00018579302
2	0x256b2b1a	2.0397604e-16
3	0xbd302def	-0.043012556
4	0x8f38e5a5	-9.116128e-30
5	0xbc4dce1b	-0.012561346
6	0x30c2d66b	1.4176299e-09
7	0xbcf4a1ad	-0.02986225
8	0x3ca700e2	0.020386163
9	0x3c1e6433	0.009667444
10	0x3de83737	0.113386564
11	0xb9902bc8	-0.0002749844
12	0x24784c5e	5.3841113e-17
13	0xbdd6e00c	-0.10491952
14	0x356c8eea	8.812482e-07
15	0x3e363110	0.17792153
16	0x3080ba49	9.366171e-10
17	0xbdcd0b0b	-0.10011872
18	0x3c081b3c	0.008307274
19	0x3d638bd6	0.05555328
20	0x3d0962b3	0.033541393
21	0x38276026	3.9905448e-05
22	0xa40f866a	-3.1122035e-17
23	0xbd414cc8	-0.047192365
24	0x9895cae2	-3.8720457e-24
25	0x3a41cb0d	0.00073926226
26	0x2ce74e41	6.574103e-12
27	0xbc4ebaa4	-0.012617741
28	0x3c66785a	0.01406678
29	0x3d27047b	0.040775757
30	0x3e885821	0.26629737
31	0x3b878acc	0.004136419
32	0x2796f50a	4.1899035e-15
33	0xbea29110	-0.317513
34	0x00004d6d	2.7775e-41
35	0xbda6f362	-0.0815189
36	0x31ca9b60	5.896638e-09
37	0xbd9e4cd5	-0.07729498
38	0x3ee63247	0.44960234
39	0xbe19e523	-0.15028815
40	0x3c10eef0	0.00884603
41	0x3b79795f	0.0038066728
42	0x25d79cb3	3.7402738e-16
43	0xbe8cb81a	-0.27484208
44	0x998032f0	-1.3255463e-23
45	0x3dbcf088	0.09225565
46	0x31a0099e	4.657706e-09
47	0x3dd79cfb	0.105279885
48	0xbe37470c	-0.17898196
49	0xbdfe3cef	-0.12413966
50	0x3c794a8a	0.015215525
51	0x3943bacb	0.00018666235
52	0x2540c4ef	1.6720069e-16
53	0x3ccd4034	0.025055028
54	0xac7d5081	-3.599815e-12
55	0x3d8ba275	0.068180956
56	0xaf91121c	-2.6388214e-10
57	0xbd0ae05f	-0.033905383
58	0x3c6b224d	0.01435144
59	0xbd08b63b	-0.033376914
60	0xbe8a936c	-0.270656
61	0xbb025187	-0.001988502
62	0xa64bd8c6	-7.0723556e-16
63	0x3e6461a5	0.22302873
64	0xb77eaded	-1.5180075e-05
65	0x3dc96fc2	0.09835769
66	0xb13512d7	-2.6349676e-09
67	0xbe1bd4bc	-0.1521787
68	0x3e6ca6ae	0.23110458
69	0x3ee4e877	0.44708607
70	0xbe51ea2f	-0.2049949
71	0x3ab76cf3	0.0013994261
72	0x26a2c107	1.1293328e-15
73	0xbd562ee5	-0.052290816
74	0xb7060fe3	-7.990721e-06
75	0x3e69a68e	0.22817442
76	0x30f9b3f7	1.8168284e-09
77	0x3ed69791	0.4191251
78	0x3e959b7e	0.29220194
79	0xbc0d5ab8	-0.008627586

2.bias f4 [8]
0	0x3bba6d8f	0.00568933
1	0xbc8a0c4a	-0.016851563
2	0xba846a6d	-0.0010102518
3	0x3d5eae3d	0.054365385
4	0xbc4502b6	-0.012024572
5	0x3b66f82d	0.003524314
6	0x3b96e787	0.004605237
7	0x3cfce977	0.030873043
