python_nn/error_net3.pth (torch_old, 2240 bytes, 6 tensors)

0.weight f4 [10, 10]
0	0xbbb05ef7	-0.0053824144
1	0xc0a83109	-5.2559857
2	0x3f9ef6c3	1.2419056
3	0x3de589ff	0.11207961
4	0x3e13e612	0.14443234
5	0xbec6e66b	-0.3884767
6	0x3f1b21e5	0.60598594
7	0x3ea96289	0.3308299
8	0xbf561eae	-0.83640563
9	0x40069188	2.1026325
10	0xbc8aa2bc	-0.0169233
11	0x40baca93	5.8372283
12	0xbdbd2f70	-0.092375636
13	0x3db8b946	0.09019713
14	0xbdf28b1c	-0.11842939
15	0x4031b0cf	2.7764165
16	0x3f059595	0.5218137
17	0x3df20538	0.11817402
18	0xc10d7ac9	-8.842477
19	0xbef8c990	-0.4859128
20	0x3dfca6d2	0.12336506
21	0xc0052369	-2.0802863
22	0xbf6e2978	-0.93032026
23	0xbd77f5b1	-0.060537044
24	0xbe22b25c	-0.15888351
25	0x402bb536	2.6829352
26	0x3f028ba6	0.50994337
27	0x3eb11cf5	0.34592405
28	0x416685c7	14.4076605
29	0xbf685ef4	-0.90769887
30	0xbbb90771	-0.005646639
31	0xbd575d76	-0.052579366
32	0xbdc29540	-0.095011234
33	0xbe867df3	-0.26267967
34	0xbead6b80	-0.33871078
35	0xbd804941	-0.06263972
36	0x3e14263b	0.14467709
37	0xbc90394b	-0.017605444
38	0x3dae56b8	0.08512634
39	0x3dbb22e6	0.09137516
40	0xbf41e747	-0.75743526
41	0x3fc48537	1.5353154
42	0x3e9d2869	0.30694893
43	0xbe026f8d	-0.12737866
44	0xbafa0868	-0.0019075992
45	0xbf36d756	-0.71422327
46	0xbe44f3ed	-0.19233675
47	0x3f496f2c	0.7868526
48	0x4029b3be	2.6515956
49	0x4077e15e	3.8731303
50	0xbebdde98	-0.37083888
51	0x3d91f037	0.071258955
52	0x3ed22c32	0.41049343
53	0xbeb9e312	-0.36306053
54	0xbf0b4895	-0.54407626
55	0xbea82e5e	-0.32847875
56	0xbdfa800c	-0.12231454
57	0x3d3962cd	0.04526024
58	0xc1052f4e	-8.324049
59	0x4033eba3	2.8112571
60	0x3c9a618b	0.01884534
61	0x409b3161	4.8497777
62	0x3fc018b4	1.5007539
63	0x3dc86a99	0.09785957
64	0x3da2513f	0.07925653
65	0xbdcad278	-0.09903425
66	0xbf2a498f	-0.6651849
67	0x3ee092bb	0.43861946
68	0x40c15cbb	6.0425696
69	0x4025a441	2.5881503
70	0xbec471d6	-0.383681
71	0xbd920a9f	-0.07130932
72	0x3e86c14a	0.26319343
73	0xbd0f84e6	-0.03503885
74	0xbe81a3bd	-0.25320235
75	0x3e2a8040	0.16650486
76	0xbe00f690	-0.12594056
77	0xbdaef6c9	-0.08543164
78	0x3d94b09a	0.072602466
79	0xbda95230	-0.08267629
80	0xbd46e75b	-0.04856048
81	0xbe96a65a	-0.2942379
82	0xbc74916e	-0.014927251
83	0x3c0bb0a3	0.008526
84	0xbe8ca29d	-0.27467814
85	0x3da0c638	0.07850307
86	0xbccc3e8f	-0.024932174
87	0xbda3fa79	-0.08006758
88	0x3e6007ea	0.21878019
89	0xbd7c68d2	-0.061623402
90	0xbc79b1df	-0.015240162
91	0xbe91d79f	-0.28484818
92	0xbe61e4ad	-0.22059889
93	0xbde3b1c7	-0.11117893
94	0xbe48b79b	-0.1960129
95	0x3db1605e	0.08660959
96	0xbdaaa996	-0.08333127
97	0x3da3c6ac	0.07996878
98	0xbe0f19a1	-0.1397462
99	0xbe86a522	-0.2629786

0.bias f4 [10]
0	0x3fc06faf	1.5034083
1	0xc01954aa	-2.3957925
2	0x3f7ca6d7	0.9869208
3	0xbeab7182	-0.33485037
4	0x40e9a6f0	7.301628
5	0x410787cf	8.470656
6	0x3ebb6c7a	0.366062
7	0xbccf6266	-0.025315475
8	0xbed38f98	-0.4132049
9	0xbe37ade6	-0.1793743

2.weight f4 [9, 10]
0	0x3ee0440c	0.43801916
1	0xbeae44c7	-0.34036848
2	0x3f2b8a14	0.67007565
3	0xbe9f73d7	-0.31143066
4	0x3f1018ad	0.5628765
5	0xbefece40	-0.4976673
6	0x3e8473ae	0.25869507
7	0xbbd81fdd	-0.0065955953
8	0xbead562b	-0.33854803
9	0xbe0efb35	-0.13963015
10	0x3d0ec237	0.034853186
11	0xbece4bf7	-0.40292332
12	0x3e97819a	0.29591066
13	0x3e432147	0.19055663
14	0xbeb74ab9	-0.35799196
15	0xbf1cfc75	-0.6132272
16	0x3e8c7e84	0.27440274
17	0xbe77ed95	-0.24211724
18	0x3e1fadfc	0.15593714
19	0x3ca1d4e6	0.019754838
20	0xbe9f6414	-0.3113104
21	0xbe944cf8	-0.28964972
22	0x3f195808	0.5989995
23	0x3dd35040	0.10318041
24	0xbfbff000	-1.4995117
25	0x403775c5	2.866563
26	0x3f1d6532	0.61482537
27	0xbe3ea74b	-0.18618505
28	0x3e790726	0.24319133
29	0xbe41679a	-0.18887177
30	0xbe5fdc89	-0.21861471
31	0xbe89051d	-0.26761714
32	0xbe54a58e	-0.20766279
33	0xbdaa40f6	-0.083131716
34	0x3de946a5	0.113904275
35	0xbed19c3d	-0.40939513
36	0xbe3b9af7	-0.18320833
37	0xbca31431	-0.019907089
38	0xbe735372	-0.237623
39	0xbdb98d3c	-0.090601414
40	0x3e79396e	0.24338314
41	0xbee4e85a	-0.4470852
42	0x3f994d13	1.1976646
43	0xbdbb4ce8	-0.09145528
44	0x3f3886e3	0.7208082
45	0x4034e560	2.8265
46	0x3ea18c36	0.31552285
47	0xbe713728	-0.23556197
48	0xbdb2d019	-0.08731098
49	0xbe63d699	-0.22249831
50	0xbb876898	-0.0041323416
51	0xbf56a371	-0.8384314
52	0x3f8fc309	1.1231395
53	0xbe3342ce	-0.17505953
54	0xbea10cff	-0.31455228
55	0xbeb35c9a	-0.35031587
56	0x3f19fe00	0.601532
57	0x3e68dce9	0.2274052
58	0xbcb080e1	-0.02154583
59	0xbe93be98	-0.2885635
60	0x3f31b8d2	0.6942264
61	0x3f5525c0	0.83260727
62	0xbf1686ce	-0.58799446
63	0x3e959f10	0.29222918
64	0x3ea2e1ba	0.3181284
65	0x3f92e156	1.1475017
66	0xbe6ba1ff	-0.23011015
67	0xbd8f5b61	-0.06999851
68	0x3e25efe2	0.1620479
69	0x3e969ea7	0.29417917
70	0xbe5232a7	-0.20527135
71	0x3e06c994	0.13162833
72	0xbe2a0ffc	-0.1660766
73	0x3e210f68	0.15728533
74	0xbe8b375c	-0.27190673
75	0xbe121496	-0.14265665
76	0xbe456943	-0.19278435
77	0x3d1dfdfc	0.038572297
78	0x3d4367d2	0.047706433
79	0xbde25bb6	-0.11052649
80	0x3ea72653	0.32646427
81	0x3e8b447b	0.27200684
82	0xbd99dd9d	-0.075129725
83	0xbe342bc5	-0.17594822
84	0x3ecb415a	0.39698297
85	0xbe0ee886	-0.13955888
86	0xbde6d292	-0.11270632
87	0x3e5a2b80	0.21305656
88	0xbe0c3ab0	-0.13694263
89	0x3e798e90	0.2437079

2.bias f4 [9]
0	0xbff32acc	-1.8997436
1	0x40832f6c	4.099539
2	0x3fcc762e	1.5973566
3	0xbeaac1ac	-0.33350885
4	0x3fa348f6	1.2756641
5	0xbfcd08e5	-1.6018339
6	0xc01b9024	-2.4306726
7	0xbe5c4e5b	-0.21514265
8	0xc02213d3	-2.53246

4.weight f4 [8, 9]
0	0x3d037579	0.032094453
1	0xbd237307	-0.03990462
2	0x3c803088	0.015648142
3	0xbe723a75	-0.23655112
4	0xbc1cc27a	-0.009567851
5	0x3c9bba56	0.01900975
6	0x3cd82b4d	0.026387835
7	0xbeb6ebf2	-0.35726887
8	0xbdaf2713	-0.08552375
9	0x3c1fc52c	0.009751599
10	0xbba5e189	-0.0050622863
11	0xbc0c2df2	-0.008555876
12	0x3e1ea141	0.15491201
13	0x3a9da408	0.0012027035
14	0xbb982201	-0.0046427255
15	0x3c0e4918	0.008684419
16	0x3d8e2a64	0.06941679
17	0xbcfbc006	-0.030731212
18	0x3d07fa18	0.033197492
19	0xbd14b3d3	-0.036304306
20	0xba128366	-0.0005589038
21	0x3c5c3fd2	0.01344295
22	0xbbc68fa4	-0.0060596038
23	0xbb5a5c69	-0.003331924
24	0x3cbff4f2	0.023432229
25	0xba741130	-0.00093104225
26	0xbda082f4	-0.07837477
27	0x3ec31957	0.3810527
28	0xbefa50c6	-0.4888975
29	0x3e3cb44d	0.18428154
30	0x3d6cc5d7	0.057805862
31	0xbe0f1c72	-0.13975695
32	0x3e55fa34	0.20896226
33	0x3e8da503	0.27664956
34	0xbe696a9b	-0.22794573
35	0xbf65ce0d	-0.89767534
36	0xbd073227	-0.033006813
37	0x3d13871d	0.036017526
38	0xbb412f46	-0.002947764
39	0x3d4fc312	0.050723143
40	0x3ba25649	0.0049541336
41	0xbaea00c6	-0.0017853014
42	0xbce1c9f8	-0.027562127
43	0xbc72167d	-0.014775869
44	0x3dbae122	0.09124972
45	0xbecff48c	-0.40616262
46	0xbdb2fbbc	-0.08739421
47	0x3e31aa29	0.17350067
48	0xbe47e40c	-0.19520587
49	0x3e816e17	0.25279304
50	0x3af695fc	0.0018813009
51	0xbba4f7ad	-0.005034408
52	0x3ec313d3	0.38101062
53	0x3e34f718	0.17672384
54	0x3d9911e8	0.074741185
55	0x402c7066	2.6943603
56	0xc0368c2c	-2.8523054
57	0x3f01ab20	0.5065174
58	0x3fbd9b44	1.4813008
59	0x3e2d9fcc	0.16955489
60	0xbfd4aeae	-1.6615808
61	0xbdd7a181	-0.10528851
62	0xbfccc27f	-1.5996855
63	0xbfcb021a	-1.5860016
64	0xc00b4946	-2.1763473
65	0x3f3d289d	0.73890096
66	0x3dfd1055	0.12356631
67	0xbfbb2e4b	-1.4623502
68	0x403a9f2e	2.9159656
69	0x3f9ebecd	1.2401978
70	0xbec505b2	-0.38480908
71	0xbdc32001	-0.09527589

4.bias f4 [8]
0	0xbe30ecd7	-0.17277847
1	0x3c35d3c1	0.011097849
2	0xbc5cec37	-0.013484052
3	0xbf94cfe1	-1.162594
4	0xbcdd22fd	-0.026994223
5	0xc0281362	-2.626183
6	0x4061bcf2	3.5271573
7	0x40d12919	6.536267
