python_nn/error_net2.pth (torch_old, 1610 bytes, 4 tensors)

0.weight f4 [10, 10]
0	0x3c9bf041	0.01903546
1	0xbf25f07d	-0.6482008
2	0x3dd4e675	0.10395519
3	0x3d0db8e1	0.034600142
4	0xbdcb1c9a	-0.09917565
5	0x3e575df3	0.21031933
6	0x3e06d220	0.13166094
7	0xbf47cec3	-0.7804987
8	0x3aafce40	0.0013412908
9	0xbcc96440	-0.024583936
10	0xb9535ac6	-0.00020156344
11	0x38d95bb0	0.000103644445
12	0xb8828e36	-6.225372e-05
13	0xbd60331d	-0.054736245
14	0x3d2c74e7	0.042103674
15	0xb90b045a	-0.00013257694
16	0x38845493	6.310004e-05
17	0xba0c141d	-0.0005343573
18	0xb4c2fe36	-3.632028e-07
19	0xb7ed1366	-2.8261635e-05
20	0x3cafa07a	0.021438826
21	0x3d8f6fb7	0.0700373
22	0xbeff27fa	-0.49835187
23	0xbe1c97de	-0.15292308
24	0x3e509440	0.20369053
25	0x3ee23d07	0.44187185
26	0xbcf6e2f9	-0.030137526
27	0x3e769b59	0.24082698
28	0xbb8396a0	-0.0040157586
29	0xbc0ad17d	-0.008472797
30	0xb98ac558	-0.00026468444
31	0xb8a7de9e	-8.004646e-05
32	0x39493237	0.0001918756
33	0xba0957db	-0.0005239227
34	0xba445402	-0.0007489325
35	0xb96558f5	-0.00021872281
36	0x37df3a1e	2.6610734e-05
37	0x380844f2	3.2489137e-05
38	0xb58f5037	-1.0677676e-06
39	0x35f91fe7	1.856123e-06
40	0xbc9ca122	-0.019119803
41	0x3f12f440	0.57403946
42	0x3e70594d	0.23471566
43	0x3e54565a	0.20736066
44	0xbe15dca2	-0.14634946
45	0x3f0a99d6	0.54140985
46	0x3cc2d355	0.023782412
47	0xbf0f0c4e	-0.5587815
48	0x3a8a8d01	0.0010570587
49	0x3c1c6f75	0.009548058
50	0x3c06275d	0.008188096
51	0x3bfaa097	0.0076485383
52	0xbe934903	-0.2876664
53	0x3cab651e	0.02092224
54	0x3e2f58b8	0.17123687
55	0xbeb32c1c	-0.3499459
56	0x3e04ff35	0.12987979
57	0xbd4d2889	-0.050087485
58	0xbb0892c6	-0.0020839437
59	0xbb7f593b	-0.0038963098
60	0x3d16e6f1	0.036841337
61	0xbed25fad	-0.4108862
62	0x3e8dcaec	0.2769388
63	0xbdbae59c	-0.09125826
64	0xbbef801f	-0.0073089744
65	0xbed6748b	-0.4188579
66	0x3f44d7cf	0.768918
67	0xbea53851	-0.32269529
68	0x3af3525a	0.0018563971
69	0xbc881523	-0.016611641
70	0xbd21e0b7	-0.039520945
71	0xbeaae527	-0.33377954
72	0x3dec6ade	0.11543821
73	0x3e9760f6	0.29566163
74	0xbddf3e2e	-0.10900532
75	0x3d6e9ae8	0.0582532
76	0x3ebc3d76	0.3676564
77	0x3e92a60d	0.28642312
78	0x3b05cbfd	0.0020415776
79	0xbbbac42d	-0.0056996555
80	0x3d3f1f25	0.04666056
81	0xbd4be1ca	-0.049775876
82	0x3ec38fa2	0.3819552
83	0x3eb7968a	0.3585704
84	0xbe98bc25	-0.29831043
85	0xbec53416	-0.385163
86	0x3ec8fb6d	0.39254323
87	0x3eb94ffa	0.3619383
88	0x3a91c159	0.0011120244
89	0xb98821dc	-0.0002596517
90	0x3c9d7f23	0.019225663
91	0xbec3b586	-0.3822443
92	0xbdbbca29	-0.09169418
93	0xbbad7de1	-0.005294547
94	0xbc256024	-0.0100937225
95	0x3e7d88f2	0.24759272
96	0x3f1df770	0.61705685
97	0x3d7fd1f3	0.062456083
98	0xb9fa6043	-0.00047755436
99	0xbc6b2296	-0.014351508

0.bias f4 [10]
0	0x3d75f191	0.06004483
1	0xb899c196	-7.331667e-05
2	0x3c21d5f5	0.0098776715
3	0xb838c878	-4.405572e-05
4	0xbd8a996b	-0.067675434
5	0xbb22da21	-0.0024849253
6	0x3d863739	0.06553502
7	0x3c3e1664	0.011602018
8	0xbc346c94	-0.011012215
9	0x3d0ac057	0.033874836

2.weight f4 [8, 10]
0	0x3d53ea0f	0.051736888
1	0x3a5bc11c	0.00083829626
2	0x3c444077	0.01197826
3	0x388b7078	6.6489854e-05
4	0xbd06a00c	-0.032867476
5	0xbd12c5cb	-0.03583316
6	0x3dfaa3b3	0.122382544
7	0x3d5710cb	0.05250625
8	0xbd8f0ee6	-0.069852635
9	0x3cfb3492	0.030664716
10	0x3dcaf6ae	0.09910332
11	0xbbca53d6	-0.006174545
12	0xbd7fdf0e	-0.06246858
13	0xb6afe12d	-5.2416203e-06
14	0xbd4197de	-0.047263972
15	0xbd15ab60	-0.03654039
16	0x3d08d9bf	0.033410784
17	0x3dcf4abe	0.10121678
18	0xbd5cc715	-0.053900797
19	0xbd07a962	-0.03312052
20	0x3cebe146	0.028793942
21	0x398264da	0.00024870672
22	0x3cf56ab3	0.029958105
23	0xb7b777d5	-2.1871101e-05
24	0xbd2ce0cf	-0.04220658
25	0x3c960309	0.018311994
26	0xbc9c6667	-0.019091798
27	0xbc93b1d7	-0.018029137
28	0xbd3db3a8	-0.04631391
29	0x3d295712	0.041342802
30	0x3f30cc72	0.6906196
31	0x3b7d9e3d	0.0038699054
32	0x3f030ad5	0.51188403
33	0xba109043	-0.0005514661
34	0xbed5ac50	-0.41733027
35	0x3e1d1ffd	0.15344234
36	0x3f621451	0.8831225
37	0xbdc5c168	-0.0965603
38	0xbe76af71	-0.24090363
39	0x3f1a2675	0.6021493
40	0x3f4032cb	0.75077504
41	0xbca949de	-0.020665105
42	0x3e1bd134	0.15216523
43	0x3931fcf9	0.00016974275
44	0xbf25af9f	-0.647211
45	0x3e056995	0.13028558
46	0x3edf3109	0.43592098
47	0x3ee55d37	0.4479768
48	0xbf3265ab	-0.69686383
49	0x3eb43fe1	0.35204986
50	0xbd874ae8	-0.06606084
51	0x3c3c9582	0.011510255
52	0x3d70571f	0.058676835
53	0x389c4007	7.450586e-05
54	0x3d235602	0.039876945
55	0x3d4a0d54	0.049329117
56	0xbdb1e31d	-0.086858965
57	0xbdea0815	-0.11427323
58	0x3d793a46	0.06084659
59	0x3d86c731	0.065809615
60	0xbdac7832	-0.08421363
61	0xb39bec00	-7.260678e-08
62	0x3eda4509	0.42630795
63	0xb892abd8	-6.993831e-05
64	0x3ef1ded2	0.4724031
65	0x3c1c5cc6	0.009543603
66	0xbcb19ac4	-0.021680243
67	0xbebee64a	-0.37285072
68	0x3ebf37d2	0.37347275
69	0x3e267826	0.1625677
70	0xbcc6bab3	-0.024258947
71	0x3d232931	0.039834205
72	0x3e95f9b1	0.29292062
73	0xb7ddf93d	-2.6461314e-05
74	0x3edcdfcf	0.43139502
75	0xbeb46101	-0.35230258
76	0xbe9d9d3d	-0.30784026
77	0x3e7859c5	0.24252994
78	0xbe90caa1	-0.28279594
79	0x3e5d4b74	0.21610814

2.bias f4 [8]
0	0x3d7bc8a2	0.061470635
1	0x3ddf6b21	0.10909105
2	0xbcf6de86	-0.030135404
3	0x3db914eb	0.09037193
4	0xbd2361e3	-0.039888274
5	0x3cd98720	0.02655369
6	0xbd848527	-0.06470709
7	0x3c522a32	0.012827443
