python_nn/net.pth (torch_old, 3421 bytes, 6 tensors)

0.weight f4 [16, 10]
0	0x3ec5bfda	0.38622934
1	0x3dcb1f70	0.099181056
2	0x3ec2ec61	0.38070968
3	0x3f1ca5e6	0.6119064
4	0x3f0712ce	0.5276307
5	0x3e7bb73f	0.24581622
6	0x3dccefe7	0.10006695
7	0x3ea7cd60	0.32773876
8	0x3e6f4f86	0.2337018
9	0x3dbd7137	0.0925011
10	0x3e89b900	0.26898956
11	0xbe8c5bef	-0.2741389
12	0x3e95bd96	0.29246205
13	0x3d9834b0	0.07431924
14	0x3e613424	0.21992546
15	0xbec2d1c2	-0.38050658
16	0x3ec28ce8	0.37998128
17	0x3f200ad1	0.62516505
18	0xbdb9b712	-0.09068121
19	0xbd1fc15e	-0.03900277
20	0x3dc6a5a7	0.096995644
21	0xbdc75d4f	-0.09734594
22	0x3d0d9094	0.03456171
23	0xbe624933	-0.22098236
24	0x3d60933b	0.05482791
25	0xbd19cd52	-0.037549324
26	0xbe1f0c99	-0.1553215
27	0x3d7a181b	0.061058145
28	0xbe3b07e2	-0.18264726
29	0xbd7f4449	-0.06232098
30	0x3ea86978	0.32892966
31	0xbf15a065	-0.5844787
32	0x3e8b8126	0.2724697
33	0x3e0006e0	0.12502623
34	0x3efa6e9f	0.48912522
35	0x3b67f6b3	0.0035394847
36	0x3c269e16	0.010169527
37	0x3ed21a70	0.41035795
38	0x3f070f9c	0.52758193
39	0x3e3d9845	0.18515117
40	0xb237256b	-1.066051e-08
41	0x20eb0dd4	3.98197e-19
42	0xac6831e5	-3.299688e-12
43	0xbbbbe52e	-0.0057341075
44	0xbbc0b360	-0.005880758
45	0x00000d2e	4.728e-42
46	0x8000113b	-6.181e-42
47	0xbba5d2ca	-0.0050605284
48	0x00002189	1.203e-41
49	0x0000011a	3.95e-43
50	0x3e705df9	0.23473348
51	0xbdc279bc	-0.09495875
52	0x3e8bc7bd	0.27300826
53	0xbeae6a6c	-0.34065568
54	0x3d826eec	0.06368813
55	0x3d928778	0.07154745
56	0x3d986b9e	0.07442401
57	0x3dcd0b1f	0.10011887
58	0xbdb6c0f5	-0.089235224
59	0x3e6f2b43	0.23356347
60	0xbbc42e78	-0.005986985
61	0x3c83c05b	0.016082933
62	0xbc99553a	-0.018717397
63	0xbc0fdd0c	-0.008780729
64	0xbb19d322	-0.0023471792
65	0x3aff13b3	0.0019460827
66	0xbc8801c4	-0.016602404
67	0xbc081059	-0.008304679
68	0xb35901cd	-5.0525887e-08
69	0xbb4fada3	-0.003168919
70	0x3bd0eb6a	0.00637572
71	0xbf3ff656	-0.74985254
72	0x3f7c807e	0.98633564
73	0x3d4915ce	0.04909306
74	0xbd3df874	-0.04637952
75	0x3efb61cf	0.4909806
76	0x3f38ac0f	0.7213754
77	0x3c9faa30	0.019490331
78	0x3e913e3a	0.28367788
79	0x3e316d85	0.17326935
80	0x3dc8c002	0.098022476
81	0xbd64b76a	-0.05583898
82	0x3def06db	0.116712295
83	0x3d234df3	0.03986926
84	0xbe6a6f9b	-0.22894137
85	0xbdda5276	-0.106602594
86	0xbd050114	-0.03247173
87	0x3dae64ba	0.08515306
88	0xbea928b2	-0.3303886
89	0xbdd4ec21	-0.103966005
90	0x3e8a9a59	0.27070883
91	0x3e8f6d01	0.2801285
92	0xbd191461	-0.03737295
93	0xbd8f8455	-0.07007662
94	0x3eede88f	0.4646649
95	0x3e693812	0.22775295
96	0x3f291bee	0.6605824
97	0x3f03cbe3	0.5148298
98	0xbdbe8e5c	-0.09304497
99	0xbc26812e	-0.010162635
100	0xbe2837b1	-0.16427495
101	0x3e8cfc1c	0.27536094
102	0x3db24a58	0.08705586
103	0xbde05b93	-0.109549664
104	0xbe81a5c5	-0.25321785
105	0x3e37314c	0.17889899
106	0x3e655078	0.22393978
107	0x3e2ef59c	0.1708588
108	0xbcb182b2	-0.021668766
109	0xbe80ac02	-0.25131232
110	0x3e5187f5	0.2046202
111	0x3eaf1856	0.34198254
112	0xbee6696f	-0.45002314
113	0x3ea4bb6a	0.32174236
114	0x3ea9e0dd	0.3317937
115	0xbf061298	-0.5237212
116	0x3f2efda4	0.68355775
117	0xbe918e28	-0.2842877
118	0x3e1e9d29	0.1548964
119	0x3e3c409c	0.18384022
120	0x000016cf	8.182e-42
121	0x29740ee8	5.4191813e-14
122	0xb2a6e675	-1.9429743e-08
123	0x30edd868	1.7305526e-09
124	0xb239988b	-1.08031015e-08
125	0x00004d86	2.781e-41
126	0xb11e96f7	-2.307784e-09
127	0xbb10ee1b	-0.0022114578
128	0x0000182c	8.671e-42
129	0x00000511	1.817e-42
130	0x3d32cf7a	0.043654896
131	0x3ee9c155	0.45655313
132	0xbf5bb4c3	-0.85822695
133	0x3f5ddf80	0.8666916
134	0xbf0d61ba	-0.55227244
135	0xbe7f1988	-0.24912083
136	0xbe806699	-0.25078276
137	0x3d2a5c2e	0.041591816
138	0xbf855818	-1.0417509
139	0xbe52098c	-0.20511454
140	0x3e6010e4	0.21881443
141	0x3e387742	0.18014243
142	0xbe4f4274	-0.20240194
143	0x3dba3986	0.09093003
144	0xbdb66707	-0.0890637
145	0x3e020140	0.1269579
146	0x3e56ab9e	0.20963904
147	0xbe94d8aa	-0.29071552
148	0xbe4837d8	-0.19552553
149	0xbd79d02a	-0.060989536
150	0x3d94f2a9	0.07272846
151	0xbc126347	-0.008934802
152	0x3c444a36	0.011980584
153	0xbc94478f	-0.018100528
154	0xbc57669a	-0.013147021
155	0xba768e99	-0.0009405404
156	0x3d82a6b3	0.063794516
157	0xbc2952e8	-0.010334708
158	0xb28ae864	-1.6170993e-08
159	0xbd731b3f	-0.059352156

0.bias f4 [16]
0	0x3f1296ef	0.57261556
1	0x3f06d9a1	0.52675825
2	0x3e89c20f	0.26905867
3	0x3e4fb701	0.20284654
4	0x89b4f458	-4.3563204e-33
5	0xbe1d0d8c	-0.15337199
6	0xbb8a9ee2	-0.004230366
7	0x3e169926	0.14706859
8	0x3e0ca765	0.13735731
9	0x3efdaf72	0.49547917
10	0xbdd0f48f	-0.10202896
11	0x3e7b5d5f	0.24547337
12	0x800005be	-2.06e-42
13	0xbe84ecc3	-0.25961885
14	0x3e214c0d	0.15751667
15	0xbbf06835	-0.007336641

2.weight f4 [16, 16]
0	0xaadf939a	-3.9715177e-13
1	0x9c75fe0b	-8.1392043e-22
2	0x000048b6	2.6084e-41
3	0xa73cd6dc	-2.6206717e-15
4	0x00000d23	4.713e-42
5	0x000078f9	4.3397e-41
6	0x0000973d	5.4254e-41
7	0x00002f17	1.6893e-41
8	0x8000023e	-8.04e-43
9	0xa163c9d1	-7.7177693e-19
10	0x000008d7	3.171e-42
11	0x800009a9	-3.465e-42
12	0x0000287b	1.4522e-41
13	0x00001031	5.808e-42
14	0x00001259	6.582e-42
15	0x800022d7	-1.2498e-41
16	0xbbc4f36b	-0.006010463
17	0x3c67e772	0.014154302
18	0x00002692	1.3836e-41
19	0x3d1a84ff	0.03772449
20	0x80003026	-1.7272e-41
21	0x80001ca9	-1.0281e-41
22	0x3bbb8780	0.00572294
23	0xbf67f357	-0.9060568
24	0x800022de	-1.2508e-41
25	0x3df38936	0.11891405
26	0x80001f55	-1.124e-41
27	0x3e986c6e	0.29770225
28	0x000006f4	2.494e-42
29	0xbee1e976	-0.4412343
30	0x80000784	-2.696e-42
31	0x800025e5	-1.3594e-41
32	0xbd882ad3	-0.06648793
33	0x3ce67f43	0.028136855
34	0x3e27f9ba	0.16403857
35	0xbc8f351d	-0.017481381
36	0x00001b71	9.844e-42
37	0xbd62ac3b	-0.055340033
38	0x80001eb5	-1.1016e-41
39	0x000002d3	1.013e-42
40	0x3dc65f2d	0.09686122
41	0xbe0da9a7	-0.13834248
42	0x3dafc3e4	0.08582285
43	0x8000183d	-8.695e-42
44	0x80001d0c	-1.042e-41
45	0x800052f7	-2.9762e-41
46	0x00000be3	4.264e-42
47	0x00006318	3.5548e-41
48	0xbdd51ab7	-0.10405486
49	0x3e01244f	0.12611507
50	0x00003119	1.7613e-41
51	0x3d3e5679	0.046469186
52	0x000061b7	3.5053e-41
53	0x80002123	-1.1887e-41
54	0xbc6d420f	-0.014481082
55	0xbd614375	-0.054995973
56	0xbe270ee6	-0.16314277
57	0x3de3d2f8	0.111242235
58	0x00002704	1.3996e-41
59	0xbf10a4ed	-0.56501657
60	0x1d4d4ab3	2.7170143e-21
61	0x3e8740e4	0.26416695
62	0x00003738	1.9809e-41
63	0x80000dad	-4.906e-42
64	0x3d45e435	0.04831334
65	0xbd40f8e4	-0.04711236
66	0x0000395b	2.0575e-41
67	0x3daab37a	0.08335014
68	0x80001e9b	-1.0979e-41
69	0x800071d3	-4.0832e-41
70	0xbb4148cd	-0.0029492856
71	0xbeed8bd9	-0.46395758
72	0x00003120	1.7623e-41
73	0x3ca2efbd	0.019889707
74	0x00001a36	9.403e-42
75	0xbd843c56	-0.06456821
76	0x80001ff5	-1.1464e-41
77	0xbe5fd91c	-0.21860164
78	0x80001c2e	-1.0109e-41
79	0x80000738	-2.59e-42
80	0xbba5270f	-0.0050400565
81	0xbc26bdc1	-0.010177077
82	0x80000cb3	-4.556e-42
83	0xbbc491d6	-0.0059988303
84	0x80003449	-1.8756e-41
85	0x8000003f	-8.8e-44
86	0x000023c2	1.2827e-41
87	0x00002305	1.2563e-41
88	0x8000104d	-5.848e-42
89	0xba952a70	-0.0011380445
90	0x800006b1	-2.4e-42
91	0x3c295efe	0.010337589
92	0x00004410	2.4416e-41
93	0xbc1cc1fe	-0.009567736
94	0x00000385	1.263e-42
95	0x80000a27	-3.642e-42
96	0x3f0f7acd	0.56046754
97	0xbf083fb2	-0.5322219
98	0x80002e2a	-1.656e-41
99	0x3edd552d	0.43229046
100	0x00001954	9.086e-42
101	0x80001a47	-9.427e-42
102	0xbbd63f01	-0.0065382724
103	0xbe8b5500	-0.27213287
104	0x80000833	-2.941e-42
105	0xbedd6680	-0.43242264
106	0x00001720	8.296e-42
107	0x3e8c46e8	0.27397847
108	0x35e7468d	1.7231374e-06
109	0xbeccd806	-0.40008563
110	0x00007a11	4.3789e-41
111	0x00002e2d	1.6565e-41
112	0xbc7e6081	-0.015525938
113	0xbc7cfd6d	-0.015441281
114	0x00004deb	2.7952e-41
115	0xbc7d273d	-0.01545125
116	0x00001fe3	1.1439e-41
117	0x00003a57	2.0928e-41
118	0x8000525c	-2.9545e-41
119	0x00001007	5.75e-42
120	0x00001227	6.512e-42
121	0xbc7cd1ef	-0.015430911
122	0x80006d32	-3.9172e-41
123	0xbc6d9dfb	-0.0145029975
124	0x800034c1	-1.8925e-41
125	0xbc7367bc	-0.014856275
126	0x00000ae4	3.907e-42
127	0x00000407	1.445e-42
128	0x3ecd820a	0.40138274
129	0x3ed38ccd	0.4131836
130	0xbe47f87c	-0.19528383
131	0x3edef02d	0.43542615
132	0x00002d34	1.6216e-41
133	0xbd8e2661	-0.06940914
134	0x3bfde428	0.0077481456
135	0xbf7624bb	-0.96149796
136	0xbc1edeec	-0.009696703
137	0x3eabb223	0.33534345
138	0xbe3ecaa5	-0.1863199
139	0xbeccf3c4	-0.40029728
140	0xbb22b7e1	-0.0024828839
141	0x3fa27086	1.269059
142	0xbe7a1412	-0.24421719
143	0x3c3daffd	0.011577603
144	0x3d8e4425	0.06946591
145	0x800038d7	-2.039e-41
146	0xbd46cc33	-0.048534583
147	0xbe1ce743	-0.15322594
148	0x00000213	7.44e-43
149	0x80000528	-1.85e-42
150	0x8000116c	-6.25e-42
151	0x000012ad	6.7e-42
152	0x3cd686b6	0.026187282
153	0xbe85d28d	-0.261372
154	0x00000600	2.152e-42
155	0x00000823	2.919e-42
156	0x80004f13	-2.8366e-41
157	0x00002657	1.3754e-41
158	0x3e51e7b4	0.20498544
159	0x00002c7c	1.5958e-41
160	0xbd998085	-0.07495216
161	0x3ecf7da0	0.40525532
162	0x3e55333d	0.20820327
163	0x3e210dca	0.15727916
164	0x80001618	-7.926e-42
165	0xbdd1bda4	-0.10241249
166	0x3c7325ea	0.014840582
167	0xbe5c868b	-0.21535699
168	0x3b9ab48d	0.0047212304
169	0x3ee03459	0.43789938
170	0xbda6e058	-0.08148259
171	0xbe864ba6	-0.2622959
172	0x8000120b	-6.473e-42
173	0xbf53dec1	-0.8276177
174	0x3e083858	0.13302743
175	0x3bdb4fed	0.0066928775
176	0x3e48ecbc	0.19621557
177	0xbe6bd51b	-0.23030512
178	0x8000091c	-3.268e-42
179	0xbe16412c	-0.14673299
180	0x80009019	-5.1692e-41
181	0x80000f07	-5.391e-42
182	0xbbe07d79	-0.006850895
183	0xbdc06759	-0.09394712
184	0x00001d3f	1.0492e-41
185	0x3c3e8222	0.011627706
186	0x00002995	1.4917e-41
187	0x3ed08b0f	0.40731093
188	0xb68f8952	-4.2777183e-06
189	0xbe850e73	-0.25987586
190	0x00003aa7	2.104e-41
191	0x00003c6f	2.168e-41
192	0x3b260d1d	0.0025337406
193	0x3d48bf12	0.049010344
194	0x80001bd2	-9.98e-42
195	0x3ddf5284	0.109044105
196	0x80004728	-2.5526e-41
197	0x800027a0	-1.4215e-41
198	0xbc088972	-0.008333551
199	0x3e6b396a	0.2297112
200	0x00000a31	3.656e-42
201	0xbce0cbac	-0.027440868
202	0x000042cd	2.3964e-41
203	0xbeb7e7bc	-0.35918987
204	0x80002b19	-1.546e-41
205	0x3df2adda	0.11849566
206	0x8000409f	-2.3182e-41
207	0x8000077e	-2.688e-42
208	0x3f016b9b	0.5055482
209	0x3e4efa4a	0.20212665
210	0xbe5ebb10	-0.21751046
211	0x3ee97291	0.4559522
212	0x80006827	-3.7363e-41
213	0xbe1d548a	-0.1536428
214	0xbc15fb2f	-0.009154125
215	0x3f35e1f1	0.71047884
216	0xbe570c41	-0.21000768
217	0x3e882656	0.26591748
218	0x3dad4b98	0.08461684
219	0x3e20b8ac	0.15695447
220	0xba1424fa	-0.0005651262
221	0xbf604a1c	-0.8761308
222	0xbdac65c5	-0.084178485
223	0xbbd1ba8d	-0.0064004124
224	0xbc726aff	-0.014796018
225	0xbc7cbcb4	-0.01542585
226	0x80001dd2	-1.0698e-41
227	0xbc740fe6	-0.014896369
228	0x000085e0	4.8025e-41
229	0x80000e7c	-5.196e-42
230	0x80001f86	-1.1308e-41
231	0x000000b7	2.56e-43
232	0x0000007c	1.74e-43
233	0x3b8f1b6e	0.0043672835
234	0x8000247f	-1.3092e-41
235	0x3c7e53d4	0.015522916
236	0x00001fa3	1.1349e-41
237	0xbc7edc8b	-0.015555511
238	0x8000242a	-1.2973e-41
239	0x0000169d	8.112e-42
240	0xbdd9dccd	-0.106378175
241	0xbe0f21ae	-0.13977692
242	0x00000c37	4.382e-42
243	0x3e231904	0.15927511
244	0x80000233	-7.89e-43
245	0x00009e3d	5.6765e-41
246	0x80009b5c	-5.5732e-41
247	0x80000448	-1.536e-42
248	0xbd31fbe9	-0.04345313
249	0x3dedebe3	0.116172574
250	0x00002a3b	1.515e-41
251	0x80002664	-1.3772e-41
252	0x80002fc7	-1.7139e-41
253	0x80001ba7	-9.92e-42
254	0x8000150e	-7.553e-42
255	0x00001f8d	1.1318e-41

2.bias f4 [16]
0	0x00001f00	1.1121e-41
1	0x3e2f92d5	0.17145856
2	0xbe18f63a	-0.14937678
3	0xbf00792c	-0.50184894
4	0xbe8f9ad1	-0.28047803
5	0xa9d1540d	-9.296045e-14
6	0x3edf68fb	0.4363478
7	0xbb863a89	-0.0040963334
8	0xbbea076e	-0.007141999
9	0xbd03400b	-0.032043498
10	0xbeb1caa8	-0.34724927
11	0x3eff829c	0.49904335
12	0xbe0ef57a	-0.1396083
13	0x3e0ee59f	0.13954781
14	0x3c3a0d60	0.011355728
15	0xbd99df32	-0.07513274

4.weight f4 [8, 16]
0	0x80009e2a	-5.6739e-41
1	0xbe64a2c1	-0.2232771
2	0xbde2ecf5	-0.11080352
3	0xbf3a3092	-0.7273036
4	0x3ef7235a	0.4826916
5	0xb044893f	-7.1499423e-10
6	0xbe65d6ae	-0.22445175
7	0x8000114b	-6.204e-42
8	0x3d8b501c	0.06802389
9	0xbe21271c	-0.15737575
10	0x3d95c26e	0.07312475
11	0x3f44302c	0.76636004
12	0x3dc2626b	0.09491428
13	0xbbcbbbed	-0.006217471
14	0x847bcd4a	-2.9599172e-36
15	0x2d2fe441	9.998281e-12
16	0x80002a27	-1.5121e-41
17	0x3e5df89d	0.2167687
18	0x3d97c5d9	0.07410783
19	0xbf00105d	-0.5002497
20	0x3e4af48e	0.19819853
21	0xb60e2930	-2.1183623e-06
22	0xbebdf34e	-0.3709969
23	0x00000a5d	3.718e-42
24	0x3d913249	0.07089669
25	0xbe305970	-0.17221618
26	0xbc8b7a4c	-0.01702609
27	0x3f153093	0.58277243
28	0xbda1358e	-0.07871543
29	0xbc4a984b	-0.012365411
30	0x228294fc	3.5394314e-18
31	0x00001487	7.364e-42
32	0x80002843	-1.4443e-41
33	0xbe848312	-0.2588125
34	0x3e02940c	0.12751788
35	0x3d8e4234	0.06946221
36	0xbd34f725	-0.044181008
37	0x296f4861	5.313144e-14
38	0x3e760c22	0.24028066
39	0x00000999	3.443e-42
40	0xbda8ffe8	-0.08251935
41	0xbd70d28e	-0.05879455
42	0x3df01aa8	0.11723834
43	0xbe2ea571	-0.17055298
44	0x3e06a671	0.1314943
45	0x3d286fd1	0.04112226
46	0x00000c9c	4.523e-42
47	0x1a0d9441	2.9277875e-23
48	0x80001779	-8.42e-42
49	0xbe66f349	-0.22553743
50	0x3c33dbc0	0.010977685
51	0x3d27e067	0.04098549
52	0xbf1c3686	-0.61020696
53	0xb2825052	-1.5170517e-08
54	0x3f06be24	0.5263388
55	0x00000438	1.513e-42
56	0x3eac582f	0.3366103
57	0xbe41b221	-0.18915607
58	0xbeefa257	-0.46803543
59	0x3b092e52	0.002093215
60	0xbdf24f8f	-0.11831581
61	0x3e7db5d7	0.24776398
62	0x00000b17	3.978e-42
63	0xbbd9874d	-0.0066384436
64	0x00001308	6.827e-42
65	0x3e6bde03	0.2303391
66	0xbc76cbb7	-0.015063218
67	0xbd967e39	-0.07348294
68	0x3f4fa60e	0.81112754
69	0x2b9ba200	1.1058376e-12
70	0x3f113321	0.5671864
71	0x000011a7	6.332e-42
72	0x3dfbfc6e	0.123040065
73	0xbde8ada0	-0.11361241
74	0xbe54d345	-0.20783718
75	0x3e534bec	0.2063443
76	0xbe81b716	-0.25334996
77	0x3ed2993a	0.41132528
78	0x00000750	2.623e-42
79	0x3ab2d4fb	0.0013643795
80	0x800033a6	-1.8528e-41
81	0xbe92bda7	-0.28660318
82	0x3de29215	0.11063019
83	0xbd9c6d9a	-0.07638092
84	0x3e510e86	0.20415697
85	0x3355e332	4.979956e-08
86	0x3d0778f4	0.033074334
87	0x000011a8	6.334e-42
88	0xbc3bd8df	-0.01146528
89	0x3e38de48	0.18053544
90	0xbc25b03c	-0.010112818
91	0x3d84f86e	0.06492697
92	0x3da54cf9	0.08071322
93	0x3cf39529	0.029734211
94	0x9863e209	-2.945318e-24
95	0x000012bd	6.722e-42
96	0x00002b03	1.543e-41
97	0x3d828f8a	0.06375034
98	0x3d67e595	0.05661543
99	0xbf39c2cf	-0.7256288
100	0xbf1d0cfc	-0.6134794
101	0xb88833b9	-6.4946194e-05
102	0xbf4277e9	-0.7596422
103	0x80001230	-6.524e-42
104	0x3ccfb74a	0.025355954
105	0x3dae8053	0.0852057
106	0xbd794d64	-0.06086482
107	0x3f822373	1.0167068
108	0xbed1c103	-0.4096757
109	0x3e2dbfdb	0.16967718
110	0x2e377e1d	4.1721394e-11
111	0x02114eae	1.0675498e-37
112	0x800008d8	-3.173e-42
113	0xbe8f0d89	-0.27940014
114	0xbd60ce39	-0.05488417
115	0x3e8b018d	0.2714962
116	0x3ed2bf4c	0.41161573
117	0x9f596a0c	-4.6039257e-20
118	0xbf1e749f	-0.618967
119	0x80000ee5	-5.343e-42
120	0x3ed2c31a	0.41164476
121	0xbe6d9a71	-0.23203446
122	0x3efb8185	0.49122253
123	0xbea8cedd	-0.32970324
124	0x3d5b1e2f	0.053495582
125	0x3e019f3c	0.126584
126	0xa6305c12	-6.1187045e-16
127	0x00000d05	4.67e-42

4.bias f4 [8]
0	0x3e74edf1	0.23918892
1	0xbf4f5c21	-0.8099995
2	0xbee45ebc	-0.44603527
3	0x3e18b1c0	0.14911556
4	0x3ecc88c4	0.39948094
5	0xbeb603f4	-0.3554989
6	0x3e8602d5	0.26174036
7	0x3d00d6d2	0.03145487
