python_nn/steering_net2.pth (torch_old, 906 bytes, 3 tensors)

0.weight f4 [10, 1]
-0.009813495 0.04512663 -0.045124125 -0.009813489 0.045122698 0.04502709 0.0451268 0.009813547
0.009813502 -0.009813564
00000000: c8c8 20bc b4d6 383d 13d4 38bd c2c8 20bc
00000010: 94d2 383d 536e 383d e1d6 383d 00c9 203c
00000020: d0c8 203c 12c9 20bc

0.bias f4 [10]
0.007274443 0.010683271 -0.010671772 0.0072769173 0.010690176 0.010676475 0.010674959 -0.0072805453
-0.0072841337 0.007286719
00000000: 735e ee3b e308 2f3c a8d8 2ebc 3573 ee3b
00000010: d925 2f3c 62ec 2e3c 06e6 2e3c a491 eebb
00000020: beaf eebb 6ec5 ee3b

2.weight f4 [1, 10]
-0.16595668 -0.026457755 0.026456082 -0.16595842 -0.026452983 -0.026430959 -0.026462046 0.16595694
0.16595867 -0.16595756
00000000: 8cf0 29be efbd d8bc 6dba d83c 01f1 29be
00000010: edb3 d8bc bd85 d8bc efc6 d8bc 9ef0 293e
00000020: 12f1 293e c7f0 29be
